model_pth/best_correlation_model.pth (torch, 75102 bytes, 6 tensors)

network.0.weight f4 [128, 3]
000000 9a db de 3e 56 db d5 be 3c 0b ca bd 6b a1 cf 3c
       0.43526918 -0.41768903 -0.09865424 0.025345525
000010 60 ba 73 3e 46 32 f0 be 3f 19 a7 3e fa 1b c4 3e
       0.23801565 -0.46913356 0.3263645 0.38302594
000020 df 05 9b be 68 82 e4 3e d8 08 2b be 49 90 e7 3e
       -0.30277917 0.44630742 -0.16702592 0.45227268
000030 6c 18 f5 3e d3 b9 ef be e0 de 84 3d c3 bb e6 3d
       0.47870195 -0.4682146 0.064878225 0.112662815
000040 d2 1d 0a be 8a 77 fd bc 54 71 3e 3e 03 68 fb be
       -0.13487938 -0.03094079 0.18597919 -0.49102792
000050 80 1c a8 3b ff ac a0 3e ce b2 74 be 33 36 10 3f
       0.0051303506 0.31381986 -0.23896334 0.563327
000060 68 37 dd 3e 02 33 02 be 64 a6 85 be 54 fe b8 be
       0.43206334 -0.1271477 -0.26103508 -0.36131537
000070 00 96 66 3e 80 75 1e bc 5a 99 59 3e e9 59 80 3e
       0.22518158 -0.009671569 0.21249905 0.25068596
000080 92 5f c1 be 56 03 cd 3e b7 0d a1 be 7c da e3 3d
       -0.37768227 0.40041608 -0.31455776 0.11125657
000090 d4 d6 9d be ab cd 08 3f cf eb 77 be 30 7f b6 bd
       -0.30827963 0.53438824 -0.24211048 -0.08910978
0000a0 fc 0c 28 be 47 5d bd be 75 07 ba 3e af ec b0 3e
       -0.16411203 -0.36985227 0.36333814 0.34555575
0000b0 85 e7 52 bd 96 d0 b9 be 87 d9 a9 3e c3 c2 86 be
       -0.051490325 -0.3629195 0.33173773 -0.26320466
0000c0 90 a2 ad 3d 5d 72 25 3e a1 85 48 be 04 cb 47 be
       0.08478272 0.16156907 -0.19582225 -0.19511038
0000d0 65 33 9c be 43 33 ae 3e 11 12 88 3c 83 43 6e 3e
       -0.3050796 0.34023485 0.016610177 0.23267941
0000e0 9d cb 00 bf 0d 48 d4 3e 5e 66 c5 be 56 9e b8 3d
       -0.5031069 0.4146122 -0.38554662 0.09014575
0000f0 43 c4 44 be de ed 3d 3c d3 3c c7 be aa 93 a5 be
       -0.19215493 0.0115923565 -0.38913593 -0.3233922
000100 9a 43 e4 3e 1e c8 0d 3e 7f 4d 43 3d 56 4f e3 3e
       0.44582826 0.1384587 0.047681328 0.44396466
000110 17 a0 2b be d2 18 c0 be 72 91 e3 3e 7f c3 a8 3e
       -0.16760288 -0.37518936 0.44446903 0.32961652
000120 be 4a bc 3e 92 64 a9 3e 9d 18 8c be 8e bc 7d 3e
       0.36775774 0.33084542 -0.27362528 0.24778959
000130 af fc 96 3e fb 1f 32 3e 87 34 a1 bc 45 05 ed 3e
       0.29489657 0.17395012 -0.019678367 0.46293083
000140 0a 91 2d be e7 e3 18 3e 94 50 15 3f 08 95 b1 be
       -0.1694986 0.14930688 0.5832608 -0.34684014
000150 76 4b 0a be ee e5 62 be 39 0b a4 be 0a 09 69 be
       -0.13505349 -0.22158024 -0.32039812 -0.22757354
000160 36 8c 3a be 43 96 8a be 58 42 1e be 2d cd 0a bf
       -0.18217549 -0.27067766 -0.15454996 -0.54219323
000170 00 2b a1 bc 28 4e 53 3e 20 02 b0 3e 45 b7 da 3d
       -0.019673824 0.20635283 0.3437662 0.10679487
000180 1d 51 77 3e 94 44 b9 3e 9d 1f 2e 3d 4b a1 df 3e
       0.24152036 0.36185133 0.042510618 0.43677744
000190 03 55 08 3f 6e df 21 be a8 24 a8 be d4 6c 38 3e
       0.5325472 -0.15807888 -0.32840466 0.18010265
0001a0 f4 82 df bd 0b c0 03 3f 0a e3 47 3d fd 7f 90 be
       -0.10913649 0.5146491 0.048800506 -0.28222647
0001b0 56 46 0c be c0 a1 44 3e b8 44 ed be aa 74 77 be
       -0.13698706 0.19202328 -0.4634149 -0.24165598
0001c0 6b 7d 09 3e 59 76 8d 3e e9 d1 00 3f 6b 60 07 be
       0.1342675 0.27629355 0.503203 -0.13220374
0001d0 d1 5c f1 3e 45 29 09 be 19 dc f4 3e 19 6c b3 be
       0.47141126 -0.1339465 0.4782417 -0.3504341
0001e0 c4 11 60 be 8a 63 7b be b0 31 57 3d f4 79 fa 3e
       -0.21881777 -0.2454969 0.05253762 0.48921168
0001f0 65 dd 0e bf b2 f9 ef be d3 84 f5 be 30 75 50 3e
       -0.5580657 -0.4687019 -0.479529 0.20357203
000200 23 03 bb bd c0 6c 5c 3c 21 6f 93 be b8 f3 33 be
       -0.09131458 0.013453662 -0.28795722 -0.1757344
000210 b0 9a 0c 3d 2c 4f cc bd 41 fc 00 bf 9e c6 93 3e
       0.03432721 -0.09976038 -0.5038491 0.2886247
000220 d4 b2 cc bd 88 cf e7 be b4 a4 77 be a2 dd 9e 3e
       -0.09995046 -0.4527552 -0.24183923 0.31028467
000230 53 f0 cd be f0 38 ce 3e ae 11 0d 3f 3b 1e d9 3e
       -0.40222415 0.40277815 0.551051 0.42405877
000240 fe ea 59 3e 41 61 cf 3e ec e5 5c bd e8 1a 00 3e
       0.21281049 0.40503886 -0.053930208 0.12510264
000250 9d d6 83 be 0b 8a e6 be 78 ea 04 bf ac 73 0e bf
       -0.25749674 -0.45027193 -0.5192027 -0.5564525
000260 52 a2 b4 be 43 4d 27 bc c5 0f d2 3d 81 95 19 3e
       -0.3528009 -0.010211292 0.10256914 0.14998437
000270 61 cf 80 be d7 ea 05 3d 0f c8 72 be ba 08 1f bf
       -0.25158218 0.032694664 -0.23709129 -0.6212269
000280 cd 8c d0 bd 40 d9 d4 3d 24 0b c5 3e 20 1c 20 3d
       -0.101831056 0.10393 0.38485062 0.039089322
000290 fa 1d be be 80 70 24 be 80 df b9 3d 9c 88 75 be
       -0.37132245 -0.1605854 0.09075832 -0.23977894
0002a0 27 ab ab 3c 76 ee 5e 3d b1 80 02 3f 0f c0 a3 3e
       0.020955635 0.054426633 0.5097762 0.31982467
0002b0 29 a7 24 3e 23 f5 64 3d b8 a3 8c 3d ed f6 04 bf
       0.16079392 0.055897843 0.068671644 -0.5193928
0002c0 7a cc 86 be 06 79 b5 3e 1f 75 a6 be d0 9d 03 3d
       -0.26327878 0.35443896 -0.3251123 0.032132924
0002d0 f0 99 e5 be 8c b4 89 3e 51 d4 43 be 67 4b da 3e
       -0.44844007 0.2689556 -0.19123961 0.42635652
0002e0 92 b1 38 be 86 1a d8 3c 60 48 d7 3e 24 11 77 bc
       -0.18036488 0.026379835 0.42047405 -0.01507977
0002f0 5c 3a d1 3e 5e 3c 0a 3f 9f 63 d8 be 88 d3 66 be
       0.40864837 0.53998363 -0.42263505 -0.2254163
000300 50 28 04 3f 50 b3 ef be b2 25 15 3f fb e0 0a bf
       0.5162401 -0.46816492 0.58260643 -0.5424954
000310 11 7b a6 be c7 74 bc be f2 cc 84 be ec b9 e4 bd
       -0.32515767 -0.36807844 -0.2593761 -0.11168274
000320 5a f4 3c be 4b 9f 26 be bd fa 18 3f 8a 8c 04 bf
       -0.18452588 -0.16271703 0.59757596 -0.51776946
000330 00 e9 d2 3d 74 02 db bd a4 c2 7c be 5c 2a e5 3d
       0.102983475 -0.10693827 -0.24683625 0.1118972
000340 bc 12 22 bf 3a 52 07 3f 9d 5b 07 3d 37 95 db 3c
       -0.63309836 0.5285984 0.033046354 0.02680455
000350 aa fc 0e 3e 03 eb f5 be d4 28 c2 3e 04 58 a0 bd
       0.13963571 -0.48030862 0.37921774 -0.07829288
000360 74 19 c3 be 1a 7a b7 3e 7a 30 04 be 3a 59 08 3f
       -0.38105357 0.35835344 -0.12909117 0.5326115
000370 62 08 08 bf a0 05 c0 bd 56 06 81 3e 1b 28 82 be
       -0.5313779 -0.09376073 0.25200146 -0.25421223
000380 37 ee 6e be 30 f8 0a bd 50 e5 06 3d 00 f6 aa be
       -0.23333059 -0.033928096 0.032933533 -0.33390808
000390 e4 1c 5f be e7 08 7f bd 5b 21 b0 3e a5 7d 56 3e
       -0.21788365 -0.06226435 0.34400448 0.20946367
0003a0 6d 97 31 be cf f8 5a bd 1a 9a e9 bd fa f4 f9 3e
       -0.1734292 -0.05345994 -0.11406346 0.48819715
0003b0 00 e8 1c bf fb d2 b9 be ea 15 76 3e 98 f1 b5 3e
       -0.61291504 -0.36293778 0.24031797 0.35535884
0003c0 69 14 6e 3e e4 47 9b be 43 66 6b 3e 94 1f b6 be
       0.23249973 -0.30328286 0.22988228 -0.35570967
0003d0 d0 e9 be 3d b3 a9 18 3e ad 49 3a be 61 5e 03 3f
       0.0932194 0.14908485 -0.18192168 0.51315886
0003e0 b7 15 bb be d7 a3 99 3e 3b 34 bd bd 66 7a b5 bd
       -0.36540005 0.30007812 -0.09238478 -0.08861236
0003f0 37 ff 2e 3f 62 64 8c 3e 5a 3d ec be 3e 2d 5a be
       0.68358177 0.27420336 -0.46140558 -0.21306321

network.0.bias f4 [128]
000000 68 77 05 3f 2d 80 18 3f ef 64 b1 bd 4c db 54 be
       0.52135324 0.5957058 -0.0866183 -0.2078678
000010 5c ff 95 be a7 b4 e4 3e 00 dd 9c 3c 9c 74 5a be
       -0.29296386 0.44669077 0.01914835 -0.21333545
000020 28 ff 89 bd 86 ef ea be 26 b6 05 3f 81 df 97 bd
       -0.0673812 -0.45885867 0.5223106 -0.07415677
000030 f3 cc f9 3e 00 6c 6b 3e 74 c9 d1 be d2 5a 99 3e
       0.48789176 0.22990417 -0.4097401 0.29952103
000040 e6 c1 46 3e 24 1f 5e 3e a4 4a 15 3f fc 6d b5 3e
       0.19409904 0.21691567 0.5831702 0.35435474
000050 6c c3 0c 3f cb ee e1 3e c1 3a ca bb c2 fa 0e bf
       0.5498569 0.44127497 -0.006171555 -0.55851376
000060 4f 40 cc 3e 67 0a ce be a9 00 61 be 60 ab 7c bd
       0.39892814 -0.4024231 -0.21972908 -0.061686873
000070 66 03 bd 3e 53 00 80 be ce 25 03 3f 61 e8 44 3e
       0.36916655 -0.25000247 0.5122956 0.1922927
000080 52 5e db be 4a 9f 90 3e af c1 08 bf 38 ef f3 3e
       -0.42845398 0.28246528 -0.5342054 0.47643447
000090 8c 80 75 be 22 1e f8 be 37 8e 62 be c5 34 f4 3e
       -0.23974818 -0.4846049 -0.22124563 0.4769651
0000a0 af 1c a2 be 82 a6 2d be 70 0e 14 be 78 39 49 3e
       -0.3166251 -0.16958049 -0.14458632 0.19650829
0000b0 64 83 03 bf c4 3c 0f 3e 58 93 8c be 4a 8c bf 3e
       -0.5137236 0.13988024 -0.27456164 0.3741172
0000c0 0a a4 7e be c8 a2 bd 3d 9a 16 2d be 17 3d 9d be
       -0.24867263 0.09259564 -0.16903153 -0.3071067
0000d0 4e f7 18 3f 79 d8 43 3e 30 a0 10 bf 5a fc a2 3e
       0.59752357 0.19125547 -0.56494427 0.31833154
0000e0 43 73 57 be 7a 66 9d bd 75 22 0c bf ac 62 47 be
       -0.21040063 -0.076855615 -0.5474008 -0.19471234
0000f0 2b 3a 9e bc ab 25 9e be d7 10 c4 be 54 d3 ff bd
       -0.019314846 -0.30888113 -0.38294098 -0.124914795
000100 1f f8 2d 3b a4 15 e8 3e cc 15 b9 bd 29 07 50 be
       0.0026545597 0.4532901 -0.090373605 -0.20315231
000110 0c 95 53 3e 89 88 98 be b1 77 5b 3e f1 d5 b6 3e
       0.20662326 -0.29791668 0.21432377 0.357101
000120 b1 d9 c9 3e d0 55 7d 3d 06 97 e4 3e 9a 3a 0e bf
       0.39423898 0.061849415 0.44646472 -0.5555817
000130 b0 7d 29 be b9 2b fb 3b d6 40 9e 3e 67 9b e5 3d
       -0.16551852 0.0076651243 0.3090884 0.11211281
000140 0d 8d be 3e e3 e2 d5 3d b8 f3 ff 3e 32 23 82 3e
       0.37216988 0.10443666 0.4999063 0.25417477
000150 40 a9 f3 be c0 1d 81 3d b1 4d 04 3f 4d e0 1e bf
       -0.47590065 0.063045025 0.5168105 -0.62061006
000160 93 fd bd be 00 5d 0e bc f7 a8 d9 be 5c 60 d7 be
       -0.37107524 -0.008689165 -0.42511722 -0.42065704
000170 11 03 06 3f 27 58 d4 be 28 ea c1 3d 2b 38 73 be
       0.5234843 -0.41473505 0.0946849 -0.23751895
000180 84 fd 15 bf 8d 1e d0 be 0f fd 06 3f d7 99 9d be
       -0.5858996 -0.40648308 0.52729887 -0.30781433
000190 bc c3 26 3e 5b fe d1 3e e0 1d c1 3e 39 3b 02 3e
       0.16285604 0.4101437 0.37718105 0.12717904
0001a0 89 72 aa bc e1 e1 02 bf 22 c3 f3 3d b8 87 65 be
       -0.020806568 -0.51125914 0.11902453 -0.22415054
0001b0 fc a9 4c be 22 71 52 be 0a ab 14 bf b6 5a 8d 3e
       -0.19986719 -0.20550969 -0.58073485 0.2760827
0001c0 5e 76 07 3f 5d ed c3 3e 81 20 d7 be 7a 4b 10 bf
       0.5291499 0.3826703 -0.42016986 -0.5636517
0001d0 47 97 f3 3e e0 fd ef bc 10 76 da 3e cf 83 1a 3f
       0.47576353 -0.029295862 0.426682 0.60357374
0001e0 d6 5d 1a 3f c1 6b 13 bf 43 46 d7 bd 77 dc ad 3d
       0.6029943 -0.57586294 -0.10511448 0.08489316
0001f0 b7 c4 fb be 2e 78 d2 3e 97 4d 47 bc 87 12 df 3e
       -0.4917352 0.41107315 -0.012164495 0.43568823

network.2.weight f4 [128, 128]
000000 b7 fb d7 bd 7d c1 84 3d 96 8a 8f 3c 0f 05 49 bd
       -0.10546058 0.064822175 0.017522138 -0.04907709
000010 70 03 61 bd 6d 40 22 bd cf 2b 50 bd 0a 75 77 bb
       -0.05493492 -0.039612222 -0.05082303 -0.003775897
000020 b0 c5 20 bc a2 e2 74 3d 2f 32 4a 3c 50 1d 35 be
       -0.009812757 0.059786446 0.012341066 -0.17686963
000030 2a 29 55 3d a1 56 96 bd f1 e4 43 be 1e 0f 15 3d
       0.05204121 -0.07340742 -0.19130303 0.03639137
000040 98 41 0a 3c ca 50 06 bd c9 c4 ea 3d 2e 28 94 bd
       0.00843849 -0.03279189 0.11463315 -0.07234226
000050 c4 b7 19 3e 21 f7 6d bd 01 0b aa 3c 87 d7 97 bd
       0.15011507 -0.05809701 0.0207572 -0.074141555
000060 76 93 cd 3d 94 a9 60 bc 9d c1 3a 3d 2b 8e 3b 3d
       0.100378916 -0.013712306 0.0455948 0.04578988
000070 5c c4 ef bc 4f 5a af 3d 71 a4 0e bd bf b4 ba 3c
       -0.029268436 0.08562147 -0.034824792 0.022791265
000080 fb 4e 36 3d 6d 2a 82 3d fb 32 8f 3d 93 ea df 3b
       0.044508915 0.06355748 0.06992146 0.0068333833
000090 c1 da 91 3d ba a6 3f 3c b2 58 80 3d 30 3a af 3c
       0.07121802 0.011697466 0.06266917 0.02139005
0000a0 1f 7b 93 bd 96 a4 22 3d dd f6 b8 bd e4 c6 94 3c
       -0.07201218 0.039707743 -0.090314604 0.018161245
0000b0 78 81 8f bd 2e 18 28 3d de e0 40 bd 72 e3 8b 3d
       -0.07007116 0.041038685 -0.04708945 0.06830491
0000c0 76 08 d0 bc 4d 6d a1 3d d0 48 41 3c 34 c8 7b bd
       -0.02539466 0.078821756 0.011797145 -0.061470225
0000d0 8f 45 bb 3d 1e 0e 21 3d fe a2 14 3d f2 57 47 3e
       0.091441266 0.039320104 0.036288254 0.19467142
0000e0 27 df c6 3d 73 96 93 3d 40 fd 1c 3c 3c 92 d7 bc
       0.09710532 0.0720643 0.009581864 -0.026314847
0000f0 8e 0c b1 bd 36 fe 83 3d 7e 60 e3 bc 95 a9 8c 3d
       -0.08644973 0.06444971 -0.027755972 0.06868283
000100 b3 13 3e bd 28 bc 12 bc 1c 69 9d bc 1b b2 85 be
       -0.046405505 -0.008955993 -0.01921516 -0.26112446
000110 70 7f 8b bb ff 86 5c bd 73 57 cd 3d f9 52 30 bd
       -0.004257135 -0.05383968 0.10026445 -0.04304788
000120 74 55 db 3d 3b 45 b1 bd c1 45 70 bd 70 29 e7 3c
       0.10709658 -0.08655783 -0.058660273 0.028218001
000130 cf a9 d0 3c b3 71 8d bd d4 00 0c bc dc 80 11 3c
       0.025471596 -0.06906452 -0.008545119 0.00888082
000140 c3 ab 29 3b a5 0e c1 3a b9 4f 2b 3d 10 89 04 bd
       0.0025889731 0.0014729096 0.041824076 -0.032357275
000150 d6 09 e2 bd b9 52 67 bd db 27 19 bd 82 b9 bf 3d
       -0.11037032 -0.056475375 -0.037391525 0.09361555
000160 89 96 ab 3d d0 2c 8a bb ea 03 a1 3c fb cc 75 bc
       0.08378322 -0.004216768 0.019655187 -0.015002484
000170 71 bc 08 bd 53 36 a9 3d 00 6d 5b 3c 9a fe 16 3d
       -0.033382837 0.08262315 0.013392687 0.0368639
000180 7a 45 da bc c1 88 89 bc 6b 63 14 3d b2 59 7d 3d
       -0.026644457 -0.016788842 0.036227625 0.06185312
000190 08 8d 4d bd dc 6b 87 bd d6 99 00 be 5b f6 2c bd
       -0.050183326 -0.066123694 -0.12558684 -0.04222713
0001a0 9d 65 de bd fb 5c 8a 3d c4 72 77 bd 37 41 8c 3d
       -0.10859225 0.06756016 -0.060412183 0.06848376
0001b0 39 84 9c bd b3 38 a1 3d d0 5e ae bd 16 93 e2 bc
       -0.07642407 0.07872143 -0.08514178 -0.027658027
0001c0 5c 4d 10 3d b1 c9 82 bc 5d 04 9b 3d 70 ef ff bb
       0.035230026 -0.015965315 0.075691916 -0.0078105256
0001d0 4b dd 12 bc 20 b2 77 bb 20 e3 72 3c 39 25 31 3e
       -0.008963893 -0.003779538 0.014824659 0.17299356
0001e0 9d 25 9d 3d d3 f9 a4 bd a5 37 47 3d 26 15 24 bc
       0.0767319 -0.08055463 0.04863705 -0.010014808
0001f0 19 30 e7 bc e9 11 cb bc bd 4b 8d 3a b9 a9 64 3d
       -0.028221177 -0.024788814 0.0010780018 0.055825923
000200 98 43 d6 3a 8f 0d e7 3d 12 c0 04 bd 1a 3c 90 bd
       0.0016347049 0.11281883 -0.032409735 -0.070427135
000210 a7 a4 84 3d 52 f4 00 bc 92 bd 4e 3d c2 8f 9c bc
       0.064767174 -0.0078707505 0.050473757 -0.019111518
000220 a1 0d 3c bd 76 f3 59 3d 03 4e c8 3d ee 85 ea bd
       -0.045911435 0.053210698 0.097805046 -0.11451326
000230 38 1d 8c 3d d6 e4 4c bd 55 35 ad bd 1e f8 dc 3c
       0.068415105 -0.050022922 -0.08457438 0.02697378
000240 ff b3 3f bc 28 81 0e bd a3 30 03 3d 3e 2d 80 bd
       -0.011700629 -0.03479114 0.032028805 -0.06258629
000250 b1 cb bb 3d 4e 3d 8d 3d 07 a2 42 3d 7c 57 99 3d
       0.091697104 0.068964586 0.047517803 0.074873894
000260 58 46 22 3c 4f 05 ea 3b 12 54 27 bd d9 67 af bc
       0.009904467 0.007141746 -0.04085166 -0.021411823
000270 08 2e ca 3c f3 b4 23 bd d6 f3 78 3d df 40 57 bd
       0.024680153 -0.03996749 0.060779415 -0.0525521
000280 e8 b4 c8 bb 25 40 c3 3d 90 b0 80 bc 18 23 eb bc
       -0.0061250813 0.09533719 -0.015709192 -0.028703257
000290 78 60 15 3d 91 08 58 bd 48 5c 04 bd 59 31 aa bc
       0.036468953 -0.052742545 -0.03231457 -0.020775484
0002a0 66 62 1d 3d d0 64 fb 3c 41 29 95 bd 90 50 f1 bc
       0.03842392 0.03068772 -0.07283259 -0.02945736
0002b0 d0 ac 92 bb fd 90 4c bd 78 5d 5a bc 2f 82 93 3d
       -0.0044761673 -0.04994296 -0.013327949 0.07202565
0002c0 ea 04 86 3d 5b e0 60 bd 18 b1 ad bd af 54 a9 3d
       0.06543906 -0.054901462 -0.084810436 0.08268105
0002d0 fe d2 d0 bc af 44 5f bd 5c bf ac bc 2c d5 0a 3e
       -0.025491234 -0.05450886 -0.021087341 0.13557881
0002e0 e2 4a 92 bd 0e d5 d2 3b b1 41 b1 3d cc ee f1 bc
       -0.07143189 0.0064340895 0.08655108 -0.029532813
0002f0 2c 71 4a bd 58 cc 8f bd 67 8f f2 3c f5 19 a8 3d
       -0.049424335 -0.07021397 0.029609395 0.08208076
000300 1d e9 4e bc ef 6a 93 3d 6e 92 68 3d a1 18 ec bd
       -0.012628821 0.0719813 0.05678027 -0.11528135
000310 08 ce 35 bd b4 4e ac 3d 68 db 95 bd 6a ba 96 3d
       -0.04438594 0.08413449 -0.07317239 0.073597744
000320 fe 81 d0 3d 94 f7 d1 bc 63 bc 81 3c 82 29 1a 3d
       0.10181044 -0.02563075 0.0158369 0.03763724
000330 1a da 2f 3c d9 82 46 3d 1c d2 9e 3d 82 8c 3c bc
       0.010733152 0.04846463 0.07754919 -0.011508109
000340 5b 2c 9f 3c 16 38 57 3c a8 34 51 bd 59 a4 a9 3d
       0.01943033 0.0131359305 -0.051075608 0.082833
000350 e7 01 99 bd b6 2b 6f 3d 87 80 2f 3c e4 3b 87 bd
       -0.07471066 0.058391295 0.010711796 -0.0660322
000360 b2 59 d6 bc b2 6c 1f 3d 06 7f b8 3c d8 e1 38 bd
       -0.026165817 0.03892202 0.022521507 -0.045137256
000370 06 f6 90 3d 10 6b 89 bc ae 7c 47 3d df f3 60 3d
       0.07078175 -0.016774684 0.04870289 0.054920074
000380 7a 44 8d 3d 12 7c 05 3d 91 ca c6 bc d0 20 03 3d
       0.068978265 0.032589026 -0.024266513 0.032013714
000390 da 06 23 bd e9 4a 91 bd fc 3b 1b bb 78 7a e0 3c
       -0.039801456 -0.07094366 -0.0023686877 0.027402148
0003a0 d2 01 35 bd 14 9d c2 3c 43 8b a2 b9 76 68 9d bd
       -0.04419119 0.023756541 -0.00031002806 -0.0768594
0003b0 d2 48 80 bd 63 52 9a bd 9f d9 c3 3c 2a 91 9c 3d
       -0.06263889 -0.07535245 0.02390748 0.07644875
0003c0 c4 d6 6d 3d e1 b5 b4 bd a0 0b 38 3d 4c 1f d9 3c
       0.058066145 -0.08823753 0.04493296 0.026504181
0003d0 49 e8 3a 3d 88 29 cb 3c 5d 47 90 bd b9 39 55 3c
       0.04563168 0.024800077 -0.070448615 0.01301425
0003e0 dc 2f c2 bc 1f 4c 8f 3d 54 34 71 3d 35 3e 36 bd
       -0.023704462 0.06996941 0.058887795 -0.04449292
0003f0 b4 80 e5 bd 5c d9 68 3c 05 1e c3 3d 2c 24 84 3c
       -0.11206189 0.014211979 0.0952721 0.01613053

network.2.bias f4 [128]
000000 0e 34 db 3c 88 90 1b bd ef f2 9f 3b ce 4d 87 3d
       0.02675822 -0.037979633 0.004881255 0.06606637
000010 ae b9 59 bd 4b 0d 85 3d c0 1d 14 bd 19 10 f8 bd
       -0.053155594 0.06496676 -0.036161184 -0.121124454
000020 d4 6d 84 3c eb 59 00 3c f4 41 83 3c ab 33 c4 3d
       0.016165651 0.007833938 0.01602266 0.095801674
000030 86 e6 01 3d 5f 89 43 3d 60 de 84 3d 70 77 ac 3d
       0.031713985 0.04773843 0.06487727 0.084212184
000040 4b af 92 bd bd 21 61 3d 8c 61 8e 3d de e2 98 3d
       -0.07162341 0.054963816 0.06952199 0.074651465
000050 f8 4d d7 bc 4f 5c d2 3c 8e b0 96 bd 27 08 91 bd
       -0.026282296 0.025678782 -0.07357894 -0.07081633
000060 e0 7a 50 3c a8 c9 4a bc ad ab 7a bd 80 ad 29 bd
       0.012724608 -0.01237718 -0.06119888 -0.041425228
000070 b5 0f ec bc 31 5c f6 bc fd 9a 8e 3d 76 ba 01 bd
       -0.028816083 -0.030073257 0.069631554 -0.031671964
000080 d6 2a 30 bb 94 08 4b bd 2d 01 3a 3d 07 43 e5 bc
       -0.0026881 -0.049568728 0.045411278 -0.027986063
000090 ec 91 f2 bc 51 45 51 3d 5e fe 42 bd c5 52 ab 3d
       -0.029610597 0.051091496 -0.047605865 0.083653964
0000a0 65 4f c7 bb 18 34 7d bd df 3c 7e bd 18 70 14 bc
       -0.0060824626 -0.06181726 -0.06206977 -0.009059928
0000b0 e8 95 db bc 1b 7d 67 bd 08 3a ab bc e8 f3 f8 bc
       -0.02680488 -0.056515794 -0.020901695 -0.030389741
0000c0 54 52 e2 3c f0 1f 26 3d 07 cb ee bc aa 57 a7 3c
       0.027627148 0.0405578 -0.029149545 0.020427544
0000d0 fe be 58 3d 4e e2 92 3d 4e fd 2e 3d df 31 82 bd
       0.05291652 0.071720704 0.04272204 -0.063571684
0000e0 c0 bd 50 bd 36 87 6b 3d 44 96 65 bb 3d 72 6a 3d
       -0.05096221 0.057501994 -0.0035032192 0.057237852
0000f0 da ec a9 bd 8b 89 4d bd af 99 9b 3d 5e 88 98 bd
       -0.08297129 -0.05018 0.07597672 -0.07447885
000100 39 d6 91 3d 28 e7 9d 38 a5 a1 12 3d ca 2d 76 bd
       0.07120938 7.5293996e-05 0.035798687 -0.06010226
000110 d2 5c 10 3d 56 96 9e bd d2 15 63 3d 3a 2a ef 3b
       0.03524477 -0.07743518 0.05544073 0.007298735
000120 eb 74 60 bc ca f0 58 3c 2b 42 b8 bd 3e da 19 bd
       -0.01369975 0.013241002 -0.089969955 -0.037561648
000130 0e e0 47 3d c6 1d b6 bd e1 e3 65 bd 55 05 51 bd
       0.04879766 -0.088923976 -0.056125525 -0.051030476
000140 5b cc ee bc 4a 83 4f 3d 3e c7 37 3d a7 19 ca bc
       -0.029150179 0.050662316 0.044867747 -0.024670435
000150 d1 15 66 bd 99 2e 09 3d 7c 50 79 bd 57 be 5c bd
       -0.05617315 0.033491705 -0.06086777 -0.05389246
000160 a7 cc 5d 3a af 37 12 3d 57 2c 20 bd 71 41 9e 3d
       0.00084609765 0.035697635 -0.039104786 0.07727326
000170 e2 af 83 bd 22 79 75 bd c7 99 87 3d b8 19 4d 3c
       -0.06430031 -0.059929974 0.066211276 0.012518339
000180 f9 bb 81 bd b5 f1 63 bd f3 e5 86 3d a6 70 2f bd
       -0.06334681 -0.05565043 0.06586828 -0.04283204
000190 5a 1c e1 bb 43 9a 5f 3d 88 12 ff bb f0 5e ce bc
       -0.006869835 0.054590475 -0.0077841915 -0.025191754
0001a0 10 d8 96 bc 39 51 78 3d d5 17 b8 bd f9 9f 42 3c
       -0.018413574 0.060624335 -0.089889206 0.011878961
0001b0 98 d2 3d 3c 9b e5 fb 3a d7 04 f9 bc 71 c9 82 3c
       0.011585854 0.0019218208 -0.030397816 0.015965195
0001c0 5a e6 66 3d d8 a7 12 3d df 98 21 bd 1b 32 05 3d
       0.056372024 0.0358046 -0.03945243 0.032518487
0001d0 e0 09 e2 bc c6 6c 77 bd f3 99 b1 3d ae d8 6d 3d
       -0.0275926 -0.06040647 0.086719416 0.05806797
0001e0 bc 69 c3 bc ab 21 6e 3c 8b 85 a7 bc cd e7 6f bc
       -0.023854129 0.014534394 -0.02044942 -0.014642668
0001f0 77 99 8c bd 76 c9 7b 3d 78 0e aa bd 27 bf 41 bd
       -0.068652086 0.061471425 -0.08303541 -0.047301438

network.4.weight f4 [8, 128]
000000 d2 52 f2 3c 9d 91 81 3d ce 15 65 bd e8 90 7c bb
       0.029580507 0.06326602 -0.055928998 -0.003853852
000010 90 37 a0 bd 12 10 28 3d d5 fc 9e bd 87 73 1d 3c
       -0.07823098 0.04103095 -0.07763068 0.009610063
000020 72 11 04 bd 6a 1c 63 bc 62 34 2e bd 53 25 2f 3c
       -0.0322432 -0.013861755 -0.042530425 0.010690051
000030 92 12 1c 3c be 43 a5 bd 5c dc 71 bd 5e be 21 3d
       0.009525912 -0.080695614 -0.05904804 0.03948819
000040 84 3e d1 3c 23 ca 5f 3e 40 4a bd 3d e9 b5 d5 bb
       0.025542505 0.21854453 0.09242678 -0.0065219295
000050 e3 3d 34 bd 7a cf 55 3d a7 13 20 bc 8e 47 80 3d
       -0.044004332 0.05219982 -0.0097703105 0.06263648
000060 73 6f c4 3d f0 cd e0 3b c9 d8 ad 3d 6a 86 bf 3d
       0.0959157 0.006860487 0.08488614 0.09351809
000070 f4 5e 23 bd af da 27 3d 29 95 93 bd 53 6e 95 3d
       -0.039885476 0.040980037 -0.072061844 0.07296433
000080 b7 25 db 3c 42 11 65 bd 8c 73 58 bd 94 19 3a 3b
       0.026751382 -0.05592466 -0.05284457 0.0028396593
000090 3f 40 89 bd 32 6e 39 bd 5b 96 2e 3d 84 fb f7 3c
       -0.06701707 -0.045271106 0.04262386 0.0302713
0000a0 12 f3 11 3a 65 1d 0a bd 39 fb e0 3b 22 f0 36 bd
       0.00055675313 -0.03371944 0.0068658856 -0.044662602
0000b0 38 cb 98 bc 7e ff 49 3b 0b 7f 64 bd f0 77 8d bc
       -0.01865159 0.0030822451 -0.05578522 -0.017269105
0000c0 2a ec ca 3c 22 8a 61 3d f6 41 19 3c 6b 1d b7 3c
       0.024770815 0.055063374 0.009354105 0.022352895
0000d0 c3 bd 7a bb a5 5b fa bc 58 1a 6f bd a3 50 28 3a
       -0.003826008 -0.030561278 -0.058374733 0.0006420707
0000e0 f8 de b9 3c 1a 4d 43 bd a4 1f c2 3d bf fa 30 bc
       0.022689328 -0.04768095 0.09478691 -0.01080197
0000f0 88 ba 97 bd 28 67 9a bc a0 12 66 3c 5a 13 27 bd
       -0.07408625 -0.018848017 0.0140425265 -0.04078994
000100 0f f4 52 3d b6 0f 02 3d b2 34 4e bc 3a e3 74 3d
       0.051502284 0.031753264 -0.012585806 0.059787013
000110 36 53 6c 3d 40 52 e5 ba 4f 7f 98 bd 88 90 28 3c
       0.057696544 -0.0017495826 -0.07446157 0.010288365
000120 8e 69 43 bd d7 84 0c bc b8 bc 30 bd e9 a1 a0 3d
       -0.047708087 -0.008576593 -0.043148726 0.07843382
000130 fa 1d 7e 3d 71 1f 62 bd 10 f4 96 bd a9 1f 05 bc
       0.062040307 -0.055205766 -0.0737077 -0.008125224
000140 ed 99 82 bc 93 c0 e8 bb 00 51 97 bd 4a 1b a4 bd
       -0.015942538 -0.0071030348 -0.073884964 -0.080130175
000150 1a 3c 67 3d c7 36 a0 bd a2 cc 87 bd 5c f9 24 bd
       0.0564538 -0.07822948 -0.066308275 -0.04027687
000160 cd 35 76 3d 8f 85 41 bd 51 1c 48 bd 3c 74 e1 3c
       0.060109902 -0.047246512 -0.04885513 0.027521245
000170 4c 48 3e bd d6 be 6a bd e2 e1 d6 bb ae 04 1e 3d
       -0.046455666 -0.0573109 -0.006557689 0.03857868
000180 eb 78 8a 3c cb 10 01 bd 1a 0e 2b 3d 90 62 90 bc
       0.016903361 -0.031510156 0.041761495 -0.017625123
000190 8d 57 02 bd ba 59 a3 3d be 75 3d 3c ee 12 93 3d
       -0.031821776 0.07976098 0.011563716 0.07181345
0001a0 b6 c0 b8 bb 9b 65 c9 ba 82 ba 88 bc e5 af 78 bd
       -0.0056382073 -0.0015365364 -0.016690496 -0.06071462
0001b0 52 be 72 bd d5 2b 89 3c 32 74 6e bc f5 d5 5a bc
       -0.059263535 0.016744534 -0.01455407 -0.013356675
0001c0 90 5d 3e 3c c9 23 94 3c 50 81 3c 3c b7 0b 26 3d
       0.011618987 0.01808347 0.01150544 0.040538516
0001d0 ff a8 bb 3a 07 8b 47 bd f0 d4 f3 3b 11 28 c7 3d
       0.0014317333 -0.04871657 0.0074411556 0.09724439
0001e0 20 55 47 bc 39 a2 0b 3d 7d 60 b1 bb 72 44 5b bd
       -0.0121662915 0.034090254 -0.0054131136 -0.05353207
0001f0 4c 4c 8d bc fd 88 11 bd ec 8e 95 bc ed 86 09 bd
       -0.017248295 -0.035531033 -0.018256627 -0.03357594
000200 2d dd b6 3d ce 24 43 bc 15 d0 27 bc 00 e9 0e bc
       0.08928905 -0.01191063 -0.010242482 -0.008722544
000210 f3 35 a1 3d ce af 2f 3d 0a 86 2f 3d 4c 24 57 bd
       0.07871618 0.04289227 0.04285244 -0.05252485
000220 5d 5a 98 bc 73 d5 b7 3c 37 d0 a9 3d e8 53 d5 ba
       -0.018597776 0.022440648 0.08291667 -0.0016275616
000230 8c 79 01 3d de a6 ba bc 41 4e a2 ba 37 da 98 bc
       0.031610057 -0.022784647 -0.0012382941 -0.01865874
000240 73 4a 81 3d 70 af e5 3d f0 b8 84 3d a5 ef 9e 3d
       0.06313028 0.11215103 0.064805865 0.07760552
000250 6f 44 63 bd 58 6c 49 3c 75 43 33 bc 87 da 10 3d
       -0.055485185 0.012293898 -0.010941376 0.035364654
000260 dc 25 5a 3d d5 f8 90 3d b3 e1 2f bc 2b 09 f3 bb
       0.05325876 0.07078711 -0.010734963 -0.0074168644
000270 e8 67 59 3d cd 32 e6 3b 8d 7f 9a 3b f4 50 96 3c
       0.05307761 0.007025099 0.0047149123 0.018349148
000280 79 b0 12 3d 3e c2 59 bd 5f 19 ef bc 13 aa a0 bd
       0.03581283 -0.05316376 -0.029186903 -0.07844939
000290 65 a0 6c 3d f4 b2 fe bc e8 5b 5d 3d b4 af 8d bc
       0.05777015 -0.03109119 0.054042727 -0.017295696
0002a0 c6 3d 96 3c 20 c0 bf 3b 6e f3 65 3d 29 8a 90 3d
       0.018340003 0.0058517605 0.056140356 0.07057602
0002b0 a0 b0 b7 bb 5c de 01 bd 5c 46 76 bd 2c 5b 78 bd
       -0.005605772 -0.0317062 -0.060125694 -0.060633823
0002c0 4d 35 52 bd c2 3e 0c bc 64 51 6a bd 5f 0c 90 3d
       -0.051320363 -0.0085598845 -0.057206526 0.070336096
0002d0 bc b5 ef 3c e6 ce 4e 3d c6 6a 6f 3d 87 76 c1 bc
       0.029261462 0.050490282 0.058451436 -0.023616089
0002e0 07 aa 31 bd f2 ad 7c 3d d1 3d c0 3d b8 16 58 bc
       -0.04337504 0.061689325 0.093867905 -0.01318901
0002f0 b6 9a 73 bd 2a cd eb bc 95 f2 8d bc 15 1b 88 3d
       -0.059473716 -0.028784353 -0.017327586 0.066457905
000300 48 cd 04 3d f4 40 3f bd 72 d6 25 3d bb a5 95 bd
       0.032422334 -0.046692804 0.040487714 -0.07307001
000310 e5 e8 1b bd d7 03 9c 3d 48 1a 82 bc 4e 37 c6 bc
       -0.038063902 0.0761792 -0.015881673 -0.024196293
000320 a9 22 40 3c 8e 94 56 3c 45 9a 98 bc 56 d9 5f bd
       0.011727014 0.013096942 -0.018628249 -0.054650627
000330 de ab 30 3d 6c a3 14 bd 24 33 82 bd 68 de a9 bd
       0.043132655 -0.036288664 -0.063574106 -0.08294374
000340 57 6b 33 bc 57 bd b3 3d 80 6e e9 bb 44 25 9d bb
       -0.010950885 0.08776348 -0.0071237683 -0.004795702
000350 a6 28 53 3d e0 2f bf 3b ce 76 64 3d f2 72 97 3d
       0.051552437 0.0058345646 0.055777363 0.07394971
000360 03 a5 12 3c 10 65 36 3d 21 ec 3f bc 00 6a d1 bc
       0.008950475 0.044529974 -0.011714012 -0.02556324
000370 52 d6 63 bd 48 49 92 bc a6 68 a4 3d 42 3f 71 3d
       -0.055624314 -0.017857209 0.080277726 0.058898218
000380 d3 8b ce bc d1 06 de 3c 93 23 96 bd 4e c0 1a 3d
       -0.025213158 0.02710286 -0.07331004 0.037781052
000390 11 14 db 3c fe 67 0b bc db d8 89 bc 40 0c aa 3b
       0.026742967 -0.00850868 -0.016827038 0.0051894486
0003a0 9c a6 ed bb 41 3f 2a 3c eb 00 e2 bc ab 10 fd bc
       -0.0072525274 0.0103910575 -0.027588328 -0.030891737
0003b0 e6 2b 67 3d a9 5f 9c 3d 9b e3 ba 3b 42 18 52 3c
       0.05643835 0.07635433 0.005703402 0.012823166
0003c0 90 7b 8b bb 62 71 4f 3d 3a 74 64 3d 38 75 7c 39
       -0.004256673 0.05064524 0.055774905 0.0002407626
0003d0 e8 c9 9c 3d e2 df ae bc d6 4f 47 3d 63 6f 0b 3b
       0.07655698 -0.02134699 0.04866012 0.0021276108
0003e0 44 45 92 bd 8a 51 50 bd bc ca cc bc 84 94 5e bd
       -0.071421176 -0.05085901 -0.024999015 -0.054340854
0003f0 ed 79 93 3d e1 38 80 bc e8 0d 8d 3c 5d 02 97 3d
       0.0720099 -0.015652122 0.017218545 0.07373498

network.4.bias f4 [8]
000000 ab f4 91 3d cb f4 af 3d df f3 02 bd 01 ef 4d 38
       0.07126745 0.085916124 -0.031970855 4.90984e-05
000010 da 70 06 bc d0 ed a0 3d 48 76 f9 ba b8 ac c3 bc
       -0.008205617 0.07857859 -0.0019032443 -0.02388607
