model_pth/best_correlation_model.pth (torch, 75102 bytes, 6 tensors)

network.0.weight f4 [128, 3]
00000000: 997f e0be cb82 a93e 9860 d23e c498 90bd
00000010: 4bde 393d 8863 a03e 0016 693d d2cb d2be
00000020: c0fe b5be ddb7 a93e 98f7 533e cb0b 263e
00000030: 669c bbbe b284 d13e 8823 d8be a078 d7be
00000040: f853 233e 50a3 973e 6899 d43d 8c95 f3bd
00000050: 12c1 b4be 9b4c 4abd ccd0 ffbe a425 013f
00000060: f217 7fbe aef7 62be c0fd ccbd ac79 febd
00000070: 0c34 93be 6a44 9a3e 8c19 d7be 5827 a3bd
00000080: 3f3c 8d3d 9b30 a4be e9e1 8ebe f9da f4be
00000090: a411 ce3e ede1 ae3d 4161 663e 72d4 0abd
000000a0: 6568 a73e 1bcb 3a3e a0b2 fc3e d53f f0be
000000b0: 48fa a2bd 4a56 493b 2a8d f93e 46d0 10bf
000000c0: baba 843e 235a a6be c3ab 3a3f 71f7 13be
000000d0: 29a7 433e 46ec 46be 8fc9 bebe 03c3 f3be
000000e0: cecc 0abf 646b 4abe 603e a8bc 7532 0dbf
000000f0: 0136 a2bd 4a46 543e 31ce ce3e bce2 a63e
00000100: 6d50 e73e c68a c63e 03b0 073e 1c27 a2be
00000110: ae5a e03e 6478 08bf ec17 ebbd 2077 143d
00000120: e067 e63c 803b 97bb 9cd5 d7bd 0ec2 3cbe
00000130: 3e2e 8dbe 6309 a0be 517d 12bf b43f 9d3e
00000140: 1523 023f bc94 713e d0b9 5fbe e0b7 783d
00000150: fa6f fc3e 53da edbe dca5 e53e b81c 25bf
00000160: 5c81 15be b89b 0b3f 53b4 743c 401b 12bf
00000170: c2a3 b53e e050 aa3d 4f69 08bf 38fb cbbe
00000180: 1844 afbd 22a0 c8be 3c82 edbe c095 723d
00000190: 403c 04bf 1045 6bbd 5e7f 7e3e 8cb9 52bd
000001a0: 6ee9 b4bd 728e 4ebe 2a45 e6be dcdf f6bd
000001b0: e4b9 a5be 3d10 043f adfd 163e 40f2 c53e
000001c0: 0f32 97be 6619 c6be 9983 c4be 7b37 8cbd
000001d0: 512b 8f3e 6c8a 9f3e 758c 243e 551f b73e
000001e0: 2609 c03e d037 e63d 32f7 febe 4c2b bc3e
000001f0: 8df7 91be 347a dbbe 9a4a 1e3f cf9b d1be
00000200: 1c95 87bc 7c38 f4be 4018 0e3d 887a 25be
00000210: 6e75 13bf 70a3 93bd 76a9 a2be 022a a03e
00000220: f05c e63e 5b67 de3d d5f0 5f3d 6c0a d93e
00000230: d4c0 8bbd e157 07bf 2337 ea3e 5dc0 df3e
00000240: d26a 9c3e ee5f 903d 7d90 8d3e a8c4 243e
00000250: 7f0c eabe 873b d93e c728 e53d 8211 b83d
00000260: 042c acbd 50a8 4e3e b0b0 8ebe 664d b1be
00000270: dce0 1bbf 2d5b 813e 8f3d c93d 5c43 a5be
00000280: 3d90 4d3e 7649 b53e 9dc6 8c3e 4b28 7b3e
00000290: 5402 a63e 22e7 8a3e 5d5b 753d a6e5 ccbd
000002a0: 3324 adbe 565d f43e d244 47bc d652 ce3e
000002b0: b968 db3e 28de 61bd a69a 1dbf dd58 063f
000002c0: 048f 37be d258 63bd 8932 32bd d619 a2bc
000002d0: 22b0 f43e 9144 093f 6617 68be 5a4b 21be
000002e0: 902a 6a3d 2b6a 05bf fe86 8b3d 0a46 00bf
000002f0: f5e2 e43e 87d0 d5be 8ecb 9e3e 9159 c3bc
00000300: 9247 e43e 1138 c03e 019b 86be 8db5 1abe
00000310: f246 28bd f79d 0ebc fe3d 893e 030c b33d
00000320: bef1 0ebe afd0 07be f11c 933e 317a e73e
00000330: e4b5 d33e 8cfd 46be 50a5 37bd 2c71 f73e
00000340: 514c 5abd 5bc0 ca3e 2019 cbbe 1fad 723e
00000350: c721 dc3e d24a 9f3c fb06 113f 38e7 74be
00000360: ebef 0a3e 109e 0bbc f411 ca3e 45d2 e93e
00000370: ea3c 00bf 704e f33d e6f9 f8be 0000 413a
00000380: cad1 b5be fd96 863b 94ef a33e 2709 86bc
00000390: 6274 a3be 3313 013f da40 633d e0c6 423d
000003a0: 98b9 43be f0f3 cf3d 20f9 0fbf f0ac 7ebe
000003b0: 0485 393e 4a61 f2be cc4a 983e 210b 9a3e
000003c0: 7688 b73e 5c1a 0d3f 8a91 8e3e 59b0 823c
000003d0: bb59 cf3c f0e0 2b3e b8fc 7c3e c0c7 4dbd
000003e0: f1b8 fbbe 886e 333e 50a7 d9be 84e4 063f
000003f0: ec42 113f 86cb d8be a1f5 233d f218 213d
-0.4384735 0.331076 0.4108932 -0.07060388 0.04537801 0.31325936 0.056905746 -0.41171128
-0.3554592 0.3314809 0.20699918 0.16215436 -0.3664276 0.4092155 -0.42214608 -0.42084217
0.1595 0.29616785 0.103808224 -0.11893758 -0.3530355 -0.049389463 -0.49963987 0.5044806
-0.24911478 -0.22164795 -0.100093365 -0.12425551 -0.28750646 0.3013032 -0.42011678 -0.079664886
0.06896257 -0.32068333 -0.2790673 -0.47823313 0.40247834 0.08539186 0.22498037 -0.03389401
0.32696834 0.18241541 0.4935503 -0.469237 -0.079578936 0.0030721598 0.48740512 -0.565678
0.2592371 -0.32490644 0.7291834 -0.1444986 0.19106735 -0.19426069 -0.37263152 -0.4760972
-0.5421876 -0.19767529 -0.020537555 -0.55155116 -0.07920457 0.20729938 0.40391687 0.3259486
0.45178548 0.3877775 0.13250737 -0.31670463 0.43819183 -0.533087 -0.11479172 0.03624642
0.028125703 -0.0046152472 -0.1053879 -0.18433401 -0.27574342 -0.31257161 -0.5722247 0.30712664
0.5083478 0.23591894 -0.21848226 0.060722232 0.4930418 -0.4645563 0.44853103 -0.64496946
-0.14600128 0.5453448 0.014935571 -0.5707283 0.354765 0.08316207 -0.5328569 -0.39840102
-0.0855791 -0.39184672 -0.46388423 0.059224844 -0.51654434 -0.05743891 0.24853274 -0.051446483
-0.08833586 -0.20171526 -0.44974643 -0.120544165 -0.32368386 0.5158728 0.14745207 0.38661385
-0.2953038 -0.38691252 -0.3838165 -0.068465196 0.27962735 0.31160295 0.16069205 0.35766092
0.3750698 0.11241114 -0.4979797 0.36751783 -0.2850918 -0.4286667 0.6183258 -0.40939185
-0.016550593 -0.47699344 0.034691095 -0.16160023 -0.5760106 -0.072089076 -0.31769913 0.3128205
0.4499278 0.10859557 0.054673035 0.42390764 -0.068238884 -0.5286847 0.4574519 0.4370145
0.30550247 0.07049547 0.27649298 0.16090643 -0.4571266 0.42428228 0.11189418 0.08987714
-0.08406833 0.20181394 -0.27869177 -0.34629363 -0.60889983 0.25264874 0.098261945 -0.32277954
0.20074554 0.3540761 0.2749528 0.2452709 0.3242365 0.27129465 0.059901584 -0.100047395
-0.3381668 0.4772746 -0.012162404 0.40297574 0.42853335 -0.055143505 -0.615641 0.52479345
-0.1792565 -0.055504628 -0.043505225 -0.01978771 0.4779063 0.5362025 -0.22665176 -0.157514
0.057169497 -0.52115124 0.06812857 -0.5010687 0.44704404 -0.41760656 0.31014675 -0.02384642
0.44585854 0.37542775 -0.26290134 -0.15108319 -0.041083284 -0.008704654 0.2680511 0.087425254
-0.13959405 -0.132632 0.28733018 0.45210412 0.4134971 -0.19432658 -0.04483539 0.4832853
-0.053295437 0.3959988 -0.39667606 0.23698853 0.4299452 0.019444857 0.56651276 -0.23916328
0.13568084 -0.008521572 0.39466822 0.45668235 -0.5009295 0.11880195 -0.48628157 0.0007362366
-0.3551162 0.0041073547 0.3201872 -0.016361786 -0.3192473 0.5041992 0.05548177 0.047552943
-0.19113767 0.10153949 -0.5623951 -0.24870658 0.18117148 -0.4733985 0.29744565 0.30086616
0.358463 0.55118346 0.27845412 0.01595323 0.025311342 0.16785026 0.2470578 -0.050239325
-0.49164537 0.17522633 -0.42510462 0.5269244 0.5674274 -0.42342776 0.04002917 0.03933043

network.0.bias f4 [128]
00000000: 5c57 b93e 7554 6abe 9075 093f 590b d13e
00000010: 3c2e d0be e611 4fbe 4d7b d8be 4a2f d83e
00000020: 1478 5d3e 423d 01bf 15c5 023f 28c3 7a3e
00000030: 15d2 a73e aa43 ef3e c033 5dbc 3beb 013f
00000040: 9f43 99be bffe 213e e476 db3e a39b 09bf
00000050: 7d6a 813e dd36 033d 4629 403d c564 b7be
00000060: 6275 9abe 1083 6dbe 0472 0b3f 30b5 e6be
00000070: 4786 353e be09 e3bd d272 f43e d98b 10bf
00000080: 3c1c b2be e403 01bf 329a 8a3e 70a2 e93e
00000090: f48d 78be 6c19 b3be 168b 273e ae05 fcbe
000000a0: edc3 93be 84ed 4d3e 581f 9f3e b4aa babe
000000b0: 9f72 bdbe 12d0 47bd 8c25 e1be 807e 863e
000000c0: ca1a a5bc bc24 c43e b0cc c83c 7099 95be
000000d0: dcac 563e 48c4 df3d 5e7a 8abe 6f87 b93e
000000e0: 7558 f6bd 84fc 82be bacf 9f3e 3b7e f73d
000000f0: 6603 4bbe c0e6 e03d 48fa 41be 070c 5bbe
00000100: 17ad 9a3d 7255 773e 378b 0c3f c3b0 15bf
00000110: 1290 9cbe a951 9bbe e5da 92be deb7 1bbd
00000120: 231c 8cbd a1e3 5a3d 5477 703e 2b96 0bbf
00000130: 4b7e eebe dcfb bbbe 5b4b b4be 050a 08bf
00000140: a038 7bbd 6860 2cbe 10ef 50be ad54 963e
00000150: d308 e13e 2dd8 af3e af3d bbbe f284 093f
00000160: 0016 003f 35cc 5c3e 69a0 803e 4e0b d93e
00000170: 2852 1fbe 000a 04bd 47df c5be 51b9 0a3f
00000180: 0d8e cd3c 370d eb3e b911 793e 922c 1fbe
00000190: 3214 e93e 5afa 6c3e 92f0 12bf 96d7 17be
000001a0: 09f0 b43e 4e20 06bf 97b4 0a3d 2eb3 15bf
000001b0: 2e1d 903e d63d 913e 5b2c 9a3e 5a72 c1be
000001c0: f611 9d3d d9f9 bcbe f84b b13e 3b45 ecbe
000001d0: 3e84 363f 71d8 5b3e 4af9 84be 5cba cf3e
000001e0: 3ebb 09bf 06a0 a8be 5446 34be c0d6 afbc
000001f0: 8430 f8be 6858 c1be 15aa 96bd a31d cfbe
0.36199462 -0.2288378 0.5369501 0.4082897 -0.40660274 -0.20221671 -0.4228157 0.4222358
0.21627837 -0.50484097 0.51081973 0.24488509 0.32777467 0.4673131 -0.013501108 0.5074956
-0.29934403 0.15819834 0.42864144 -0.5375311 0.25276557 0.032034744 0.04691436 -0.3581907
-0.3016768 -0.23194528 0.5447085 -0.4506011 0.17727004 -0.110858425 0.4774385 -0.5646339
-0.34787166 -0.5039656 0.27070767 0.45631742 -0.24272901 -0.34980333 0.16361651 -0.49223083
-0.28860417 0.20110136 0.310786 -0.3645836 -0.3700151 -0.048782416 -0.43973958 0.26268387
-0.020154376 0.38309276 0.024511665 -0.29218626 0.20964378 0.109261096 -0.27046484 0.3623614
-0.120285906 -0.2558328 0.3121317 0.120846234 -0.19825515 0.10981512 -0.18943131 -0.21391307
0.075525455 0.24153689 0.54899925 -0.5847284 -0.30578667 -0.3033574 -0.28682628 -0.038017146
-0.06841304 0.05343974 0.2348302 -0.54526013 -0.4658073 -0.3671559 -0.35213742 -0.5314029
-0.0613333 -0.16833651 -0.20403695 0.29361477 0.43952045 0.34344617 -0.36570498 0.53718483
0.5003357 0.21562274 0.25122383 0.42391437 -0.15558684 -0.0322361 -0.3864691 0.5418902
0.02509215 0.4590852 0.24323167 -0.15544346 0.4552322 0.23142377 -0.5739833 -0.14828333
0.35339382 -0.52393043 0.03386363 -0.5847653 0.28147262 0.2836749 0.30111966 -0.37782556
0.076694414 -0.3690937 0.34628272 -0.4614657 0.71295536 0.21469285 -0.25971442 0.40571868
-0.53801334 -0.32934588 -0.17604953 -0.021464705 -0.48474514 -0.3776276 -0.07356659 -0.404523

network.2.weight f4 [128, 128]
00000000: 8b12 51bd d9f5 633d b28e a2bd 7dc2 7a3b
00000010: 0900 85bd 35c9 1e3c 0939 47bd 10b6 c3bd
00000020: a9f0 a43d 32f7 7f3d 63ba 70bd d88c b43c
00000030: 9e73 c9bd 3652 ffbb 6048 20bb 4f25 62bd
00000040: 6163 a0bd 2ef6 ef3a f022 de3c e069 5b3c
00000050: d54d 78bd 0348 8fbd 5310 6f3d 8081 ea3c
00000060: caef 4b3d b630 073d efb7 053c 6b84 8f3d
00000070: 08f4 1fbd 43ad 6ebd 9af2 973d 6ec0 eebc
00000080: d655 ffbc 0006 b339 c90f cfbc c8fb 77bd
00000090: 88da 1abd 383e 6dbd abc4 9b3d a657 9fbd
000000a0: 6e44 223d 30a6 893c ca20 7d3c 1044 00bd
000000b0: 0850 7ebc 57c9 8a3d 7185 b6bd ade3 23bd
000000c0: 6725 9d3d 9208 a6bd 0188 aa3b ed8e a23d
000000d0: b93c 223d 62ff 9e3d 72cb 733d 569a 923c
000000e0: cffb 4f3d 98e9 fb3c 6929 a1bc 2960 a9bd
000000f0: cc0a c5bd 3c12 a0bc ff40 86bd 551e a43c
00000100: 357a b2b9 a943 b7bd e7d1 423d 6f3b 083d
00000110: 781a 10bd 92c7 963c a39a 9dbc 5ff4 e83c
00000120: 1c42 083c 84f1 563d 52fc 49bd 3ba6 473d
00000130: 8f6b 403d 4009 753c b710 9abd b50f 3bbd
00000140: 5bb3 60bd 7ce9 afbd c090 85bb 2d64 cbbb
00000150: 32fe 433d 9adc 93bd c481 a5bd c204 183d
00000160: 4a7d a6bb 765f bc3b e7dc 893c e514 71bc
00000170: aa70 b8bd 7b56 04bd 5aee c93c 36af e03b
00000180: ac05 dfbc d2a8 523d db84 bbbd 88eb 27bb
00000190: 9c2a 133d 2e3f 303d 2077 acbc ea4d 24bd
000001a0: 544a 14bc 239c 9a3d bd75 943c 602e 273d
000001b0: 3bc3 733d 575f 7cbd 232b 303d 4921 6c3b
000001c0: 07d8 813d 445b 8a3c 506d 6abd c6d4 b03c
000001d0: e1fb 82bd 12c9 30bd 1c17 51bd c0b8 7dbc
000001e0: c9dd 9bbd 5cab 13bc 2c91 cbbc bc32 9fbc
000001f0: 92d0 6cbd 23b4 a8bd 5ffb 14bd 1087 6abc
00000200: b46e 60bc 3b87 96bd 086a 4d3c e191 3e3d
00000210: f0ac 8b3d 9e28 36bd e44f 8dbc 2dcf 573b
00000220: 6c9e 883c e026 433b 87ce e23d 0094 4ebb
00000230: 3ab0 9d3d 61d8 843d 77e3 84bd 6d5b f43d
00000240: 0693 00bd 828c a33d 1e2a 5a3d 2067 753b
00000250: 2d89 963d 4eb5 b23b e09a 393b 6830 63bc
00000260: 5849 37bc f42c d0bc 4055 debc ded1 663d
00000270: fc3c 1dbd 37fd 9fbd 027a d2bc c444 ef3c
00000280: c01f fc3c 4295 723d f67a 0e3d 120f fcbc
00000290: 465c 563d e8aa 503c 6bde 34bd 1943 233c
000002a0: 8eb2 693d 486a 453c edb5 f73c c00f e4ba
000002b0: 183c 76bd 4144 663d 278a 8abd 88eb c6bc
000002c0: e8b8 983d 8959 9ebd dcdc 9cbd c0e2 bbbb
000002d0: a9c0 1b3c d3c3 2abd 467b f73c d418 51bd
000002e0: 2881 b2ba 8290 263d b4d4 903b e072 b2ba
000002f0: 78b7 9e3d d3e4 98bd a7f4 7d3d 3bb0 2e3d
00000300: ad22 753b af65 e53b 1f70 cbbc 5d3d 7ebd
00000310: 607c b1bb 3892 bebb d35d 77bd 5a40 10bd
00000320: d560 b33d 0d70 b0bd 50f6 e3bb 5ba7 e0bc
00000330: 8aaf 6fbd 51d0 9e3d 9e22 523d 5283 dfbd
00000340: 6a37 b63d 6e0e 283d d157 9e3d 1a27 c53c
00000350: c04d 81bd 3f54 813d f06e 213c b012 c6bb
00000360: 199a 3abd a937 cbbd 4fd1 473d 181c 773d
00000370: 7a80 38bb e00f f63c 2598 3d3d a621 6ebb
00000380: 57d3 b73d eae7 853d b89a fbb5 6c10 713d
00000390: 6b71 d1b9 ed0c 86bd c829 6a3c a032 97bd
000003a0: fe1c d5bd ff31 57bd 41eb 95bc 710a 543d
000003b0: 4472 ecbd d8ff 93bd afe4 f43d fdc4 1ebe
000003c0: 78df 0bbd 5a98 1a3d 50f0 fd3b ea9c dbbd
000003d0: eb36 293e 277a 093e e0e0 7ebd 02af 5bbd
000003e0: d1ea 24bd 260c 8c3d 8512 8c3d b9f0 55bd
000003f0: f4ae 2d3d b867 093d 00ce 0e3d 4068 d33a
-0.051043075 0.05565438 -0.07937373 0.0038262897 -0.06494147 0.009691526 -0.048638377 -0.0955621
0.08053715 0.062491603 -0.058771502 0.022039816 -0.09836505 -0.0077917827 -0.0024457201 -0.05521136
-0.07831455 0.001830762 0.027116269 0.013391942 -0.0606211 -0.06996157 0.058365177 0.028626204
0.049789228 0.03300544 0.008161529 0.070076786 -0.039051086 -0.058270704 0.074193195 -0.029144492
-0.03116886 0.0003414601 -0.025276082 -0.06054285 -0.037806064 -0.057920665 0.07605871 -0.077803895
0.03961604 0.016802877 0.015449712 -0.03131491 -0.015522011 0.06776684 -0.08912171 -0.04001205
0.076731496 -0.081071034 0.005204201 0.07937417 0.03960869 0.07763554 0.059520192 0.017895859
0.050777253 0.030751035 -0.019673066 -0.08270294 -0.096212 -0.019539945 -0.06555366 0.020033995
-0.00034041857 -0.08948452 0.04756346 0.033259805 -0.035181493 0.01840571 -0.019238776 0.028436838
0.008316543 0.05247642 -0.049312897 0.048742514 0.046977576 0.014955819 -0.07522719 -0.045669276
-0.054858547 -0.085894555 -0.0040760934 -0.0062070102 0.04784984 -0.07219811 -0.080813915 0.037113912
-0.0050808536 0.0057486845 0.016828967 -0.014714454 -0.09005864 -0.032309037 0.024649788 0.0068568243
-0.027224384 0.05143053 -0.091561995 -0.0025622565 0.035929307 0.043029003 -0.021052897 -0.040113367
-0.009050924 0.07549312 0.018122548 0.04081571 0.05951236 -0.06161436 0.04300989 0.0036030582
0.06340032 0.016889222 -0.057233155 0.021585833 -0.06395698 -0.043160506 -0.05104743 -0.015485942
-0.076106615 -0.009013023 -0.024849497 -0.019433372 -0.057816096 -0.08237483 -0.03637254 -0.014314428
-0.013698269 -0.07350012 0.012537487 0.04652584 0.068200946 -0.04447233 -0.017250009 0.0032929883
0.016677104 0.002977781 0.11074548 -0.003152132 0.07699628 0.064865835 -0.06488698 0.119315006
-0.031390212 0.07985784 0.053262822 0.00374455 0.07350383 0.005453742 0.0028321072 -0.013866521
-0.01118692 -0.02541206 -0.02714026 0.05635249 -0.038388237 -0.07811969 -0.025692943 0.029207595
0.030776858 0.059224375 0.034785233 -0.030768905 0.052334093 0.01273606 -0.044157427 0.009964728
0.05705505 0.012049265 0.030238116 -0.0017399713 -0.060115904 0.056217436 -0.06764632 -0.024282232
0.07457143 -0.07731921 -0.07659313 -0.005733818 0.009506383 -0.04169066 0.030210149 -0.05104907
-0.0013618814 0.040665157 0.0044198874 -0.0013614558 0.07749838 -0.0746552 0.062000897 0.042648535
0.0037404702 0.007000647 -0.024833737 -0.06207024 -0.005416438 -0.0058157705 -0.060392212 -0.03521762
0.087587036 -0.08615122 -0.006956853 -0.027423551 -0.058517016 0.07754577 0.051302545 -0.10913719
0.08897288 0.041029386 0.077315934 0.024066497 -0.06313658 0.06314897 0.00985311 -0.006044708
-0.045557115 -0.09922726 0.048783597 0.060329527 -0.002815275 0.030036867 0.046287674 -0.0036335974
0.08975857 0.06538375 -1.8745986e-06 0.05885355 -0.0003994809 -0.06545434 0.014292188 -0.07382703
-0.104059204 -0.052537914 -0.018300654 0.05176777 -0.11545232 -0.07226533 0.119576804 -0.15504833
-0.034148663 0.03774295 0.0077495947 -0.10723288 0.16524856 0.13425504 -0.062226176 -0.053633697
-0.040263 0.06838255 0.0683947 -0.052231524 0.042403176 0.03354618 0.034864426 0.0016129091

network.2.bias f4 [128]
00000000: bae2 cd3c 2e23 a13d d52d 4c3b 0557 53bd
00000010: a507 7dbd ddfe 7a3b 8164 473d cff4 a0bd
00000020: ac66 213c c629 193d d8ed a0bd 6305 173d
00000030: 8987 a23d 0796 61bd eb86 b2bd c7a5 a93c
00000040: 454d 163d fc1c 4fbd 27cb b33d e873 c4bd
00000050: 6c7f f2bc eef0 d2bc a944 5b3d dd6e 82bd
00000060: c17c d93d 5867 c8bc 10ab cc3c afa4 37bc
00000070: 8be7 573d c3d3 d93d f5e2 873d 5f9c 903d
00000080: faba 6abc 4dbe 403d 6ec8 863d 6b22 6b3d
00000090: 387d c8bc c2bc 1dbd 7020 0ebd 1b25 69bd
000000a0: 9741 723d 2e31 603b 77b7 b2bc 50e9 c63d
000000b0: 406a af3d b73f 423d 2bc0 463d 254a 153d
000000c0: 0fa3 a6bd 0c79 b73a 88a8 a4bc 815a 733d
000000d0: acc9 babc 2937 aa3d ba24 313d a057 6c3d
000000e0: 6ef5 9abd 26f2 093d b413 96bd bf0c 62bd
000000f0: b0ab 9c3d 80a6 c9bc d8f8 6bbc 4125 85bd
00000100: 3c96 983d 7793 64bd 7606 47bd 5f16 2d3d
00000110: 10d4 2ebd 4d47 3fbd 596f b63d b5bf a63b
00000120: d8a0 153d 3c94 973d 5054 a53b 905a 8c3d
00000130: 1eb7 a13d 8f66 963d 11b8 9abd 30c5 8ebb
00000140: db84 ff3d ee58 fabb 1fe3 80bb c3eb 31bd
00000150: 743c a4bd 1492 f43c e40d 363b 2034 3b3c
00000160: 006f 38bd 9044 30bc 1028 3fbd 7a30 cabd
00000170: 6051 55bc 9750 93bd d76f 253d 6b4e 463d
00000180: b17e c1bc 4c31 9ebd c880 b3bd b1aa 19bd
00000190: 4bda 913d 5637 b4bd 4adb 823d ab94 33bd
000001a0: ae46 713d ead5 3abd 20f5 3fbb 84bf 8a3d
000001b0: e24e 863d eb71 c53d 0016 383a 2e11 54bd
000001c0: 9aa2 543d c535 87bd 4043 473b 4752 a0bd
000001d0: 1ac4 993d da93 aebd 85ab a43d e7bd 3239
000001e0: 9efd 44bd 9c49 cabc cacb 36bd cee9 5b3d
000001f0: a68d aabc fcb0 173c 4331 7fbd d516 a2bd
0.025132526 0.07868038 0.0031155248 -0.05159666 -0.06177487 0.0038298883 0.048679832 -0.078591935
0.009851139 0.037393354 -0.07857865 0.03687037 0.079360075 -0.055074718 -0.0871714 0.020708932
0.036694784 -0.05056475 0.087789826 -0.0959242 -0.029601775 -0.02574965 0.053532276 -0.06368802
0.10619498 -0.02446334 0.024983913 -0.011208697 0.05271105 0.106360935 0.066350855 0.070610754
-0.014326805 0.047056485 0.06581198 0.05740587 -0.024473771 -0.03851009 -0.034698904 -0.056920152
0.059144583 0.0034209 -0.021815998 0.097124696 0.085651875 0.047424044 0.04852311 0.036447663
-0.0813657 0.0013997867 -0.020099893 0.059412483 -0.022801243 0.08311302 0.043247916 0.057700753
-0.07566343 0.033678196 -0.07327977 -0.055187937 0.07649934 -0.024615526 -0.014402591 -0.06501246
0.0745053 -0.055804696 -0.048590146 0.042257663 -0.042682707 -0.046698857 0.08907957 0.005088771
0.036530346 0.0740132 0.005045451 0.06853211 0.07896255 0.0734378 -0.07554639 -0.0043570027
0.12476512 -0.007639996 -0.003933325 -0.04343773 -0.08019343 0.029854812 0.0027779276 0.011426002
-0.045027733 -0.010758534 -0.046669066 -0.098725274 -0.01301989 -0.07193106 0.040389862 0.04841463
-0.023619981 -0.077242464 -0.087647974 -0.0375163 0.07121714 -0.08799617 0.06389482 -0.043842953
0.058905296 -0.04561416 -0.0029290393 0.0677481 0.065580145 0.09640869 0.0007022321 -0.051774196
0.05191288 -0.066020526 0.0030405074 -0.07828193 0.075081065 -0.08524294 0.08040527 0.00017046147
-0.04809343 -0.024693303 -0.044627942 0.05368977 -0.020819496 0.009258505 -0.06230284 -0.07914511

network.4.weight f4 [8, 128]
00000000: 3acb 60bd 3ef5 3b3d 38e9 7b3d 0634 b4bc
00000010: 31a6 793d 6e09 d239 eee2 b73d 6c01 b43c
00000020: 46c9 69bb b0bb abbd 28ff 02bd 6686 913c
00000030: e642 82bd faab 593d 97bd 9cbd 02ae af3d
00000040: 5d93 a1bb 2705 043d b789 3fbd 1026 1cbc
00000050: 52f7 4e3d 5898 a4bc 499e a538 28a0 00bc
00000060: f1e9 533d f09c fd3b e876 c4bc 6486 bbbc
00000070: 0d3d c53c 198f 9b3d 0138 463d c611 4f3d
00000080: 5d9d 083c d3e5 f73c c84f 47bd 4ed5 0e3d
00000090: 9c7b 8c3c a407 f83c d6f6 4c3c 00c8 00b9
000000a0: 03eb 02bc 4e01 08bd 0459 853d 5455 bfbc
000000b0: 3972 2c3d 609c 22bd 91d0 443d 5468 e93d
000000c0: ba00 85bd 1dc8 5c3d 4df6 75bd 7890 78bc
000000d0: eac0 303d 59a2 95bd b9f9 a33d 5738 18bb
000000e0: 5edd 81bd 6577 913d 2005 f9bb b348 8a3c
000000f0: 7a6d e1bb be81 5dbd 2fcc 96bd 7d57 b33d
00000100: 8d1c 07bd 43ef 2e3c 08b5 e5bc 2289 4c3d
00000110: 0cb9 43ba ef43 8a3d 58e5 55bc 46b9 1e3c
00000120: 4482 77b9 5404 593d 6f62 803d 073f 213d
00000130: 05be b0bc 1c85 adbd b253 76bd 989e 323c
00000140: babf 553d 4dfc d6bc 94e5 e0bc 92bb 2e3d
00000150: b286 553d 963e afbd fc73 133d 7eb4 083d
00000160: 0fc8 da3c 1ea6 2abd 7235 8fbd 08b5 283d
00000170: 52c4 6d3d 1818 94bd bbac 363d ed93 cd3c
00000180: 34a8 52bd 805d 04bb 46fc 45bb ee7f 583d
00000190: 143f 68bd ba9f 85bd d1c5 80bb 4392 b63c
000001a0: 4077 8ebd 92e1 043d f638 6b3d 7363 2f3d
000001b0: e824 ca3b 2abe b53b 9d7e 833d b331 3cbd
000001c0: 9747 a0bd 3ad0 c13c 08c9 483c e0a0 3d3b
000001d0: 287a 8fbc e965 033d e9e7 22bd f789 89bd
000001e0: 38a3 593c cd35 a7bd b997 3f3d 922f 83bd
000001f0: a174 8d3c c02e 183d 1d50 683c 6480 ae3d
00000200: 18e5 1bbd 35e7 ed3c 6c31 973c ce56 2c3d
00000210: 955d 72bd 8cc1 0bbd 07f8 033d 57cf 45bd
00000220: 0353 8ebd 1067 a8bc 61bd 82bd 51b1 493b
00000230: 7901 f13b fe8b 75bd c030 99bb 4839 973d
00000240: 9170 89bd 8bfe 4d3d 8502 b43b 892b a23d
00000250: 703d d23c c63a 64bc b50a 163c 0e78 22bd
00000260: 2fad d43c a4c1 9bbc 4e8b 783d b37e 283d
00000270: 32f7 eebb ecb8 ab3c e6dc 543d 9a92 493d
00000280: 4ae2 6fbc dc32 9dbd 7615 4abd f574 013d
00000290: ea71 21bd 3041 f8bc 87c6 b23b 1e59 d6bc
000002a0: d3de 673d 83ba a03d e442 a6bc dbdd 89bc
000002b0: 21f0 193d d1cd f23c e03f 3d3d 4681 783c
000002c0: 474f 0e3b 36e7 0dbd 5a58 523d db1d 6f3c
000002d0: 03bd 56bd c051 2a3c e5e3 aabd dbab 3b3c
000002e0: 4d3e 06bd 0dd2 aebd 9122 9b3d 5591 6d3d
000002f0: fcae a43c 3aef 6dbd 806f ed3b db15 553d
00000300: 33b3 96bd 6589 64bd 0e12 9dbc b1a5 6d3d
00000310: 9010 d3bb 90d7 7d3d c850 e5bc bbaf 463d
00000320: b6e1 853d 3c8b c93d 20b0 ec3b 8b69 b93c
00000330: 3333 11bd 711d b0bd 80e8 29bd 294b a83d
00000340: f4fb 873d f49f a83c 80c3 15bd f0ec a9bb
00000350: 3b7d 933d c81a 673c 3acc 9c3c 4f9f a93d
00000360: bb0a 43bd 2b28 8d3d de45 aebd 4d65 123d
00000370: 29e0 823d e44b 0f3c f447 4ebd adb0 843d
00000380: 2c99 c0bb a6a6 dcbc a79a 12bd 8370 32bd
00000390: a9ab eabc 6849 013d 599f 753d b2c6 a1bc
000003a0: dea0 023d 7a31 8f3b c26d b4ba 3e70 2f3d
000003b0: 4b27 b33d 9c0a c43d e615 2e3d c36c 09bd
000003c0: f5d7 f3bc f7ee 30bc 1c1a 0c3b 201a 3ebc
000003d0: 748a f03b 1204 04bd bcb2 39bd 83bc 373d
000003e0: 498e aabc 3eb1 773d 6b22 4d3d b0bd 3d3d
000003f0: 9aba 373d 9b50 5d3d 3b00 edbb 85dc f43c
-0.054881312 0.045888178 0.06150171 -0.021997463 0.060949508 0.00040061347 0.0897883 0.021973334
-0.0035672947 -0.08385408 -0.031981617 0.017764281 -0.06360416 0.053142525 -0.07653349 0.08578111
-0.004930897 0.032231476 -0.046762194 -0.009530559 0.05052883 -0.020092174 7.897296e-05 -0.007850684
0.051736776 0.0077396557 -0.02398248 -0.02289123 0.024076963 0.07595653 0.048393253 0.05055406
0.0083383 0.030260956 -0.04866007 0.034871392 0.017148785 0.03027708 0.012510022 -0.00012281537
-0.0079906015 -0.03320437 0.06511119 -0.023356117 0.04210112 -0.039699912 0.048050467 0.11396852
-0.06494279 0.05390178 -0.060049344 -0.015171163 0.043152727 -0.07306356 0.08006615 -0.002322694
-0.063410506 0.07102851 -0.007599488 0.016880369 -0.0068795057 -0.05407881 -0.07363164 0.087569214
-0.032986213 0.010677162 -0.028040424 0.049935468 -0.0007466234 0.067512386 -0.013055168 0.009687727
-0.00023604283 0.052982643 0.06268775 0.03936675 -0.021574983 -0.08472654 -0.06013841 0.0109020695
0.052184798 -0.026243353 -0.027453221 0.04265935 0.05213041 -0.08556859 0.035999283 0.033375256
0.026706723 -0.041662328 -0.06992616 0.04118827 0.058048554 -0.07231158 0.044598322 0.02509495
-0.051429942 -0.0020197332 -0.003021018 0.05285638 -0.05670078 -0.06524606 -0.0039298316 0.02228654
-0.06956339 0.032441683 0.05742737 0.04281945 0.0061689503 0.005546351 0.06420634 -0.045945834
-0.07826155 0.02365886 0.012254961 0.0028935 -0.017514303 0.03207961 -0.039771948 -0.06715768
0.013283543 -0.081645586 0.046775553 -0.06405558 0.017267527 0.03715396 0.014179257 0.08520582
-0.038060278 0.029040912 0.018456183 0.04207497 -0.059171278 -0.034120128 0.03221896 -0.048293438
-0.06949427 -0.020556957 -0.063837774 0.0030775855 0.007354912 -0.05994796 -0.004675001 0.073839724
-0.067109235 0.05029158 0.0054934644 0.0791846 0.025664061 -0.013930028 0.009157826 -0.039665274
0.025961487 -0.019013233 0.060679726 0.041136455 -0.0072926516 0.020962201 0.051968478 0.049212076
-0.014641354 -0.07675716 -0.049336873 0.03160568 -0.039415278 -0.030304521 0.005455795 -0.026165541
0.056608986 0.07848074 -0.020295568 -0.016829422 0.03758252 0.029639157 0.046203494 0.01516754
0.0021714733 -0.034644328 0.05135379 0.01459452 -0.05242635 0.010395467 -0.08344249 0.011454548
-0.03277426 -0.08536158 0.075749524 0.057999928 0.02010297 -0.058089472 0.007245958 0.052022796
-0.07358398 -0.055795092 -0.019173648 0.058019344 -0.0064411834 0.061973155 -0.027992621 0.048507433
0.065371916 0.0984101 0.007223144 0.022633335 -0.035449218 -0.085993655 -0.041481495 0.08217461
0.06639853 0.020584084 -0.036563396 -0.005185716 0.0720162 0.014105506 0.019140352 0.08282339
-0.047617655 0.06892427 -0.0850942 0.03574114 0.063904114 0.008746121 -0.05036159 0.06479011
-0.0058776345 -0.026934933 -0.03579202 -0.04356433 -0.028646307 0.031564146 0.05996642 -0.019748066
0.031891696 0.0043699117 -0.001376562 0.042831652 0.08747729 0.09572336 0.042501353 -0.03355099
-0.029766062 -0.010799161 0.0021377867 -0.011602908 0.0073407236 -0.032230444 -0.04533647 0.044857513
-0.0208198 0.060471766 0.05008165 0.04632348 0.04485569 0.05403195 -0.0072326935 0.029890308

network.4.bias f4 [8]
00000000: 4919 213e dc0d dabc 305a e23d ac16 afbc
00000010: 7ed2 b13d 1edc 0fbd bce0 843a daff 1fbd
0.15732302 -0.026617937 0.11052358 -0.021373115 0.08682726 -0.03512203 0.0010137777 -0.03906236
