model_pth/best_correlation_model.pth (torch, 75102 bytes, 6 tensors)

network.0.weight f4 [128, 3]
000000 4d a4 4a 3e 77 7f 85 3e 8c 32 8f 3e be f9 d4 be
       0.19789238 0.2607381 0.27968252 -0.41596788
000010 43 bc 52 3d 60 d9 1e 3e 83 14 1e 3d 8a c9 e4 3d
       0.05144907 0.1551261 0.03859378 0.11171253
000020 46 60 da be 48 22 aa be a4 35 35 be 80 59 74 3e
       -0.42651576 -0.3322928 -0.17696244 0.23862267
000030 dd f8 b1 be 76 db a4 be 38 d4 f1 3e 46 d6 eb be
       -0.3476018 -0.32198685 0.47232223 -0.46061915
000040 82 db 07 bf 90 bd f5 bd c6 4b 4a be 63 1a 11 bf
       -0.5306932 -0.11999047 -0.19755468 -0.5668089
000050 60 63 92 3d dc 01 af bd 77 b0 09 3f 25 3b ec bd
       0.071478605 -0.085452765 0.5378489 -0.115347184
000060 f7 ab 00 be 94 4c 7f 3e db ed 8d be 90 ac ce bc
       -0.125656 0.24931556 -0.27720532 -0.025228769
000070 d3 ff 8c 3c d7 14 ed bd da b4 52 be 27 0f f0 3e
       0.01721183 -0.115762405 -0.20576802 0.4688656
000080 a9 8d 13 be b9 4a 99 be 10 2c 91 3d 98 29 0a bf
       -0.14409508 -0.2993982 0.070884824 -0.5396972
000090 21 e2 0d bf e7 84 04 bf 50 b9 e4 be 45 98 76 be
       -0.5542317 -0.5176529 -0.44672632 -0.24081524
0000a0 2f 18 1b 3d b7 6e da 3e c6 54 6f be a5 9e fd be
       0.03786486 0.42662594 -0.23372182 -0.495351
0000b0 52 fc 8e be 58 c5 8c bd 6e 1e 27 be e0 55 b3 3d
       -0.2792688 -0.06873578 -0.16320202 0.08756614
0000c0 54 02 f8 bd e8 96 04 3e e4 ce 64 bd 1a b6 b7 3e
       -0.12109819 0.12948191 -0.05586137 0.3588112
0000d0 46 99 e1 be 4c 0b eb bd 40 b0 12 be 5c 2a 95 be
       -0.4406225 -0.11476764 -0.14325047 -0.2913388
0000e0 00 3f b6 3c 4c 04 3d be 4e bb 3f 3e d3 87 fb bd
       0.022246838 -0.1845867 0.18723795 -0.12281766
0000f0 00 ef 6c bd f9 2d cd be 00 b1 44 bc b0 60 58 bd
       -0.057845116 -0.40074137 -0.012005091 -0.052826583
000100 c8 37 40 be 94 f8 c1 be dc 09 0d be 00 01 d8 be
       -0.18771279 -0.37884963 -0.13773292 -0.42188263
000110 5c 91 ce be 6a 39 00 3f f5 51 70 be 47 4a bc 3d
       -0.40345275 0.50087607 -0.23468764 0.09193855
000120 3c dd fb 3e 70 cd 40 be 72 08 9a be 43 56 0c 3d
       0.49192226 -0.18828368 -0.30084568 0.034261953
000130 1f b3 a3 be 40 bd 58 3e 26 04 be be 80 2a 99 3d
       -0.31972596 0.21165943 -0.3711254 0.07478809
000140 a0 30 fd bd dc 21 59 3e d6 f2 c4 be 28 fe 9f 3d
       -0.1236279 0.21204323 -0.3846652 0.07812148
000150 10 c7 52 be d8 b2 07 bf 02 4a 64 be 86 c7 f8 be
       -0.20583749 -0.5300727 -0.22293857 -0.48589724
000160 61 dc 06 bf 18 2e ac 3d 20 31 85 3e 33 e3 fb 3d
       -0.5268002 0.08407229 0.26014042 0.12299194
000170 c9 8b d2 3d 68 dd e2 3e 46 bf dc be 4c bf 5d 3e
       0.10280568 0.44309545 -0.4311468 0.21655005
000180 c6 07 4d be da 99 07 3f e2 87 f1 be 84 c3 57 be
       -0.20022497 0.52969134 -0.47173983 -0.21070677
000190 a6 ec 18 3d 1b da 1f 3e 1b 34 b1 be 08 22 87 bd
       0.03733506 0.15610544 -0.34610066 -0.06598288
0001a0 f4 10 f4 be a4 a1 62 3e 04 23 0e bf b0 a7 40 3d
       -0.47669184 0.22131974 -0.5552218 0.04703492
0001b0 8c 1a 1f be 20 09 1d 3d 84 76 5d be 28 43 9c be
       -0.1553747 0.03833878 -0.21627241 -0.30519986
0001c0 58 b6 29 be e4 96 21 be 30 2e 67 3d c9 ae ba be
       -0.16573465 -0.15780216 0.056440532 -0.36461475
0001d0 c2 27 36 3e 44 97 b7 bd 78 29 de 3e 7a 24 ec 3e
       0.17788604 -0.089643985 0.43391013 0.4612158
0001e0 f7 35 33 be d4 bb cd 3e 2a f3 44 bd 80 a8 aa 3d
       -0.17501055 0.40182364 -0.04808346 0.0833292
0001f0 62 bf be be 54 36 4a 3e 40 41 0c 3d 26 ce bc be
       -0.37255388 0.19747287 0.034241915 -0.3687603
000200 12 54 ac be 58 a3 ed 3e a0 1c c7 3c 7c ae 02 bf
       -0.3365789 0.46413684 0.024305642 -0.5104749
000210 4f da d7 be 77 06 88 3e f9 b5 e6 bc 6f ca 2c 3e
       -0.42158744 0.26567432 -0.028162943 0.16874097
000220 77 d9 b8 bc 46 5c a2 3e a0 e9 dc be 3c 21 84 3b
       -0.022564633 0.31711024 -0.43146992 0.004032282
000230 d2 e4 86 3e 79 84 3b be 62 11 a1 bd 9d fe a0 be
       0.2634645 -0.18312253 -0.07864644 -0.31444255
000240 d0 2e ef bd d9 8b 8d 3e e1 3b f4 3e 38 6d b3 be
       -0.11678851 0.27645758 0.47701934 -0.35044265
000250 47 04 82 be f6 ba 20 be fc 8d f7 3e 13 e7 d0 3e
       -0.25393888 -0.1569632 0.48350513 0.40801296
000260 d7 a7 82 3e 6d 9a 9d be 03 86 d0 be 80 28 d1 bb
       0.25518677 -0.3078188 -0.40727243 -0.006383002
000270 2a 49 eb 3e cb fc d2 bd e3 22 05 3e 2f 70 0f bf
       0.45954257 -0.10302123 0.1300159 -0.56030554
000280 81 21 cb be cf 2d 2a 3e 05 72 af 3c 5b 01 1d 3e
       -0.39674 0.16619037 0.021416673 0.15332548
000290 39 78 09 bd 88 3d 3e 3e a4 7f 0f bd b1 46 07 3e
       -0.03356192 0.1857816 -0.035033837 0.1321056
0002a0 45 d2 82 3e 14 9c 8c 3d e6 93 06 3f a0 a0 5f be
       0.25551048 0.06865707 0.52569425 -0.21838617
0002b0 4c 02 32 3e e8 2a 65 be 3d cf a4 be bf dc e8 3e
       0.17383689 -0.22379649 -0.3218936 0.45480916
0002c0 42 01 fe bd 92 a0 a8 3e 02 26 e9 bd 4d 96 6a be
       -0.12402584 0.32935005 -0.113842025 -0.22908898
0002d0 ec 08 a8 3e 7a 46 db be 56 36 0c bf d4 8f b3 bd
       0.32819307 -0.42827207 -0.5477041 -0.087676674
0002e0 16 66 35 be d3 40 a2 be 90 75 94 3d 9e fd 8c 3e
       -0.17714724 -0.31690082 0.07248986 0.27537245
0002f0 8a 5b 23 be 36 91 d3 bd 46 82 6e 3e c9 fe d5 bd
       -0.15952888 -0.10330431 0.23291883 -0.10448987
000300 74 92 1c be 18 16 e9 3d 7b b8 c2 3e c4 c4 b0 bc
       -0.15290242 0.11381167 0.38031372 -0.0215782
000310 d2 5c 1b be ae ab c6 3d 5e b8 e6 3d 4c 60 ea bd
       -0.15172127 0.09700714 0.11265634 -0.114441484
000320 42 dc 87 bd 5a 50 0b bf fc b0 71 be 80 1f 60 bd
       -0.06633808 -0.5441948 -0.2360267 -0.05471754
000330 ec a0 29 3e 5d 31 8b 3d 70 d1 9f 3e ef b9 95 3e
       0.16565293 0.06796525 0.31214476 0.2924342
000340 93 95 14 bc e7 bf dc 3e 7f 47 32 3e 23 fb 00 3f
       -0.009068864 0.4311516 0.17410086 0.50383204
000350 f8 c6 b5 be 14 48 51 3e e7 2b 9f be a1 f5 f2 be
       -0.35503364 0.20437652 -0.31088182 -0.47453025
000360 e8 dc 26 bd 77 f7 dc 3d d8 41 c3 3c b7 9e 01 3f
       -0.040738016 0.10789388 0.023835108 0.50632805
000370 f1 a5 b1 be 6d 26 06 3f 79 c6 dd bd c2 85 67 3e
       -0.34696916 0.52402383 -0.10828871 0.22609618
000380 21 94 47 bd b2 9e 4a be df 3c 13 3f 73 bd a0 be
       -0.04872525 -0.197871 0.57514757 -0.31394538
000390 b0 c5 8f 3e ee 6a ac bc 75 8b 77 3e 20 9e f6 3c
       0.2808051 -0.021047082 0.24174292 0.030104697
0003a0 bd 73 ef 3e c5 c4 6d be c0 f9 44 3d 56 79 f2 be
       0.4676799 -0.23219593 0.048089743 -0.47358197
0003b0 00 7c 15 3d ec e4 a2 be 2d 45 bd 3b 83 47 85 be
       0.03649521 -0.3181528 0.0057760687 -0.26031122
0003c0 43 a2 ef be b5 ba b3 3e e5 ae d5 3e 8f 01 50 be
       -0.46803483 0.35103384 0.41734996 -0.20313095
0003d0 3f 5a 8c 3d 0d fe 05 3e 6a 1a 95 be 93 cb 52 3e
       0.068531506 0.13085194 -0.29121715 0.2058547
0003e0 15 02 9d be c5 07 05 3d 48 39 f1 3e 4b 66 08 bf
       -0.3066565 0.032478113 0.47114015 -0.53281087
0003f0 38 f6 ea be be 84 1b bc c5 03 6f 3c 2e a0 50 be
       -0.45890975 -0.009492097 0.014588301 -0.20373604

network.0.bias f4 [128]
000000 33 d0 9a bd 08 ff 6d bd 7d 28 2f 3f 1d 27 f0 3e
       -0.07559242 -0.058104545 0.68421155 0.4690484
000010 3e 75 97 3e a9 66 00 bf 74 ce f7 bd 11 36 ef be
       0.29581636 -0.50156647 -0.12099925 -0.46720937
000020 84 d2 95 3e 28 9c 6a 3e 79 35 2d be a6 8d 98 3e
       0.29262173 0.22911131 -0.1691493 0.2979557
000030 94 7a e7 3e 9a 31 fd bd ae 0b 04 3f 77 2e 96 be
       0.45210707 -0.12362976 0.5158032 -0.29332325
000040 cf d6 9d 3b 10 5b 01 3d 24 b0 47 be 28 ec f2 3e
       0.004816867 0.031580985 -0.19500786 0.47445798
000050 e8 53 c2 be 44 e1 02 3f f6 ce c6 3e 83 6d 3c 3e
       -0.3795464 0.5112498 0.38829774 0.1840115
000060 38 26 93 be 7b 3a b1 3e 88 dd f1 be c2 b2 16 be
       -0.28740096 0.3461493 -0.47239327 -0.14716628
000070 74 d4 09 3f ec 19 23 3e 1f 4d c2 be 80 0f 80 3e
       0.538398 0.15927857 -0.37949464 0.25011826
000080 a2 a8 5c 3e 88 16 cb 3e d1 a9 b5 be 10 4a c5 bd
       0.21548703 0.39665627 -0.35481122 -0.09633267
000090 14 8e 0a 3e 1a 9d a0 3e cb b7 bf 3e a4 a3 03 be
       0.13530761 0.3136986 0.3744491 -0.12855393
0000a0 c2 3b 00 3f 14 b6 15 be e0 e5 b3 3c 70 81 1b bd
       0.50091183 -0.14620239 0.021960199 -0.037965238
0000b0 cf ab cc 3e d7 50 01 bf 42 3e fa bc be 78 0b 3f
       0.3997483 -0.50513977 -0.030547265 0.5448111
0000c0 31 9c c3 bc 9c 69 39 3e 85 50 fd 3e 20 dc ba 3e
       -0.023878189 0.18106693 0.49475494 0.36496067
0000d0 a9 9b 2e bd 94 53 c3 3e c8 34 fd bd 56 29 b0 3e
       -0.042628918 0.38149703 -0.12363583 0.34406537
0000e0 23 87 62 be 57 d7 02 be 93 21 56 3e a8 d9 28 3e
       -0.22121863 -0.12777458 0.20911245 0.1648928
0000f0 30 66 ae be 88 6c 73 3e 43 a5 00 bf cf a9 08 3f
       -0.34062338 0.2377187 -0.5025217 0.5338411
000100 bb b5 e9 be d4 0b 4f 3e 13 1c a1 3e f0 76 b9 bd
       -0.45646462 0.20219356 0.3146673 -0.09055889
000110 00 45 da be 01 76 f6 be 00 6a 06 3e fc 1f 29 3e
       -0.42630768 -0.48136905 0.13126373 0.16516107
000120 d9 ff 81 3e 8b 1c a8 3b 67 ac 3c 3e ca 86 35 3e
       0.2539051 0.0051303557 0.18425141 0.17727199
000130 b4 71 e2 3e 3a e7 23 3d b2 2c 4c be 3c 1d 13 3f
       0.44227374 0.040015437 -0.19938925 0.57466483
000140 2f f3 08 bf 1a 2d 32 bd 6c 7d 00 3f 61 ec 93 3e
       -0.5349607 -0.043500043 0.5019138 0.2889128
000150 06 a7 ea 3e 02 0f a7 3e a5 a7 50 3a f6 0b b3 be
       0.45830554 0.32628638 0.00079595513 -0.34970063
000160 9b 4a 8e 3e 30 d7 82 be 2c 22 cd be 06 6b 48 3e
       0.27791294 -0.255548 -0.40065134 0.19572076
000170 a3 c7 a9 bd 91 2d cd bd 00 0a f5 3d 94 db 1b bf
       -0.08290031 -0.10018457 0.11964798 -0.60881925
000180 28 6f 94 3e fb 51 e3 3d 0d 93 91 be b9 66 24 bf
       0.28991055 0.11099621 -0.28432503 -0.6421924
000190 8e 4c cd be af 13 b6 3e b4 1e 0a bf b0 3e a2 3c
       -0.4009747 0.35561892 -0.539531 0.019805282
0001a0 79 78 c8 3e 07 ee e4 3c 4f 94 91 3d 51 a6 9c be
       0.39154413 0.027945532 0.07108366 -0.3059564
0001b0 2c 51 b7 be 3a 5d 84 be 10 3a 02 be 99 a1 84 be
       -0.35804117 -0.25852376 -0.12717462 -0.2590454
0001c0 65 75 03 bf 3e 94 02 bf e4 f5 05 3f 3d 83 02 be
       -0.51351005 -0.5100745 0.52328324 -0.12745376
0001d0 79 d9 36 be 00 0f 01 bf 9f a8 23 3c ef a2 9b be
       -0.17856397 -0.50413513 0.009988933 -0.30397746
0001e0 05 2d 03 be 18 64 a9 3e 65 f6 13 3f 71 97 53 be
       -0.12810142 0.33084178 0.57797843 -0.20663239
0001f0 33 9f 02 3e e3 79 d9 3e c2 65 14 be 93 6e c5 3e
       0.12756042 0.42475805 -0.14491943 0.38560924

network.2.weight f4 [128, 128]
000000 b4 00 3e bd c6 89 7d bd bb d8 a8 3d 3f d0 95 3d
       -0.04638739 -0.06189897 0.08244463 0.073151104
000010 fc 57 c2 3c 7d 38 3a bd 06 56 1c 3d b0 dd 48 bd
       0.023723595 -0.045464028 0.038167976 -0.049039543
000020 2a da db bc c6 af af bd 88 bd 57 3c 8d 96 43 bd
       -0.026837427 -0.08578448 0.013167746 -0.047751
000030 e0 38 65 3c 88 06 38 bc 00 54 e3 39 50 c7 99 3b
       0.013990611 -0.011232026 0.000433594 0.0046929494
000040 3c 74 af bd 4f 28 82 3d 80 27 d8 bc 2a 0d 79 3d
       -0.08567092 0.063553445 -0.026386023 0.06080357
000050 94 0b 6c bd 21 3f 57 bd c0 f7 a9 3c f8 f2 84 bc
       -0.05762823 -0.05255044 0.02074802 -0.016229138
000060 26 ff 4d bd 8f e4 ab bd 1e 17 df bc aa 40 16 bd
       -0.050292157 -0.083932035 -0.027232703 -0.036682762
000070 77 c1 a1 bd cf 58 84 3d be 7e 38 bd 26 71 3f 3d
       -0.078982286 0.064622514 -0.045042746 0.046738766
000080 20 27 cd bc 15 5c 99 bd 90 f0 da bb 0c 8e c8 bc
       -0.02504307 -0.074882664 -0.0066815093 -0.024481796
000090 20 f2 36 3c 98 b3 65 bd 3e 1c 0d 3d 00 48 7f 3b
       0.011166126 -0.056079477 0.034450762 0.0038952827
0000a0 16 cd 48 3d 98 9e 11 bc 4e 3b 09 3d 40 a3 3a 3c
       0.04902371 -0.008887909 0.033503823 0.011391461
0000b0 23 cd 46 bd 00 eb c9 b9 70 df 22 3c f1 b6 33 bd
       -0.048535477 -0.00038512796 0.009940967 -0.04387564
0000c0 5c 13 83 3c 8c fe f1 3c 9c f7 67 bd 60 09 36 bc
       0.016000442 0.029540323 -0.056632623 -0.011110634
0000d0 2b 2e 84 bd be 8c 1a 3d 45 52 99 3d 40 bd b4 bb
       -0.06454118 0.03773188 0.07486395 -0.0055157244
0000e0 a0 fe 45 3b c6 3e 99 bd 26 37 42 3d 6b f8 a5 3d
       0.0030211583 -0.07482676 0.047415875 0.081040226
0000f0 be ad 53 3d 98 b5 22 bc 07 f5 71 bd 28 bc 63 bc
       0.051679365 -0.009930991 -0.059071567 -0.01389984
000100 90 af 76 3c 20 d3 ed 3c b9 e3 02 bd e8 56 6a bc
       0.015056506 0.029031336 -0.031955454 -0.014302947
000110 a0 cd 46 3c 94 fa be 3c 20 fd 2a 3c 58 b4 bc bc
       0.012133986 0.023312844 0.010436326 -0.023035213
000120 c3 10 93 3d b2 66 42 3d a4 57 b0 bc 1e fc 3d bd
       0.071809314 0.04746122 -0.021526165 -0.046383016
000130 3c 30 90 bc b5 42 57 bd 58 11 59 3c 30 4c dd bb
       -0.017601125 -0.05255385 0.013248764 -0.006753467
000140 ea d7 a8 bd 58 0f 50 bc ec 62 9e bd 28 9e 44 3c
       -0.08244307 -0.012698971 -0.077337116 0.012000598
000150 1c 5c f2 bc 88 66 a8 bd 12 a8 29 3d e0 e0 df 3c
       -0.029584937 -0.08222681 0.04142005 0.027328908
000160 d6 b1 1c 3d 3f f7 83 bd f8 91 28 bc 6d 32 94 3d
       0.038255535 -0.06443643 -0.010288708 0.072361805
000170 c9 3e b3 3d f0 92 67 3c 34 3c d0 3c f0 15 b4 bd
       0.0875221 0.014134154 0.025419332 -0.08793247
000180 1b b8 b4 3d 48 2b 8a bd 10 eb 13 3d bd b9 89 3d
       0.08824178 -0.067465365 0.036112845 0.0672488
000190 74 19 14 3d f0 3c 00 3d b2 6c e8 bc 1c 14 b1 bc
       0.036157086 0.031308115 -0.028372142 -0.021616034
0001a0 97 04 8e 3d d8 8a f6 3c 9b 5c 42 bd d8 f1 0d 3d
       0.06934469 0.030095503 -0.047451597 0.03465447
0001b0 66 0f 3d 3d c8 5f 91 bd 4e 37 20 3d 72 1e 36 bd
       0.046157263 -0.07098347 0.039115243 -0.04446263
0001c0 20 4d bc 3c d4 c1 06 bd a5 84 ad bd e0 78 7c bb
       0.022985995 -0.032899693 -0.084725656 -0.0038524196
0001d0 2e 58 5e 3d 0e 00 40 3d 00 92 f2 3a 40 df 78 bc
       0.054283313 0.046875052 0.0018506646 -0.015189946
0001e0 de 04 25 bd e0 13 f9 bb 1c 48 a4 3c 39 53 8f 3d
       -0.040287845 -0.0076012462 0.020053916 0.06998295
0001f0 b8 aa 72 bc 40 46 f7 ba 3b d1 6d bd 98 c9 11 3d
       -0.01481121 -0.0018865541 -0.058060866 0.035592645
000200 a1 53 80 3c 85 bc 02 bd 67 b9 cb 3d 7a 1b a8 3d
       0.015664877 -0.031918067 0.09947472 0.08208366
000210 f9 4a 8e 3d b9 ca 8f 3d 20 b2 3b bd fa b2 97 be
       0.06947894 0.07021088 -0.04582417 -0.29628736
000220 29 6a 44 bc 75 bc 17 3e ec 99 42 be fc 2c 5e bd
       -0.011988201 0.14817984 -0.19004029 -0.05424212
000230 fc cb 92 bc c1 52 bc bc 0c 13 59 bd 88 35 4b 3c
       -0.017919533 -0.022988679 -0.05299668 0.0124029
000240 a9 f3 8d bd 8c 2c 07 3d 48 4c ff 3c 67 7a 00 3c
       -0.0693124 0.033001468 0.031164303 0.007841683
000250 6c 62 85 bc 20 ab ef 3b a8 22 96 3c 0f f5 48 bd
       -0.016282283 0.007314101 0.018327072 -0.04906183
000260 17 85 99 bd 37 17 3d 3d 44 56 0f bd c2 16 1a bd
       -0.07496088 0.046164718 -0.03499438 -0.03761936
000270 f8 1f 48 bc e5 dd 8c 3d bb e6 22 bd 99 7b 59 bc
       -0.012214653 0.068782605 -0.039770823 -0.013274097
000280 c8 d7 15 be 8a 4d 1f 3d bd 9c 9a bd 79 74 05 bd
       -0.14633095 0.038892306 -0.07549427 -0.03258178
000290 a0 0a 23 3c 16 b8 24 3d f4 b3 8d bd be 26 6a 3b
       0.009951264 0.04021462 -0.06919089 0.0035728659
0002a0 29 a5 e5 3d c2 2e a3 bd 7a 66 ad bd 89 3a 90 bd
       0.112131424 -0.07967903 -0.084668115 -0.07042415
0002b0 d8 77 6e ba f0 60 99 3d 40 fa 71 bd ec 20 42 3e
       -0.00090968376 0.074891925 -0.059076548 0.18957871
0002c0 33 34 10 3d b9 85 b0 bd e8 3f ef 3a 43 68 8b 3d
       0.03520603 -0.086192556 0.0018253298 0.06806996
0002d0 1a 42 58 bd 1a 44 41 be ca 3c e1 bd 90 91 87 3d
       -0.052797414 -0.18873635 -0.10997923 0.06619561
0002e0 f5 bd 9a 3d ee 4c f2 bc 84 13 ed 3d 61 2c b1 be
       0.07555763 -0.029577699 0.11575988 -0.3460417
0002f0 af 42 9e bd 80 00 6d 3a 8a 6d 21 bd 1c d9 24 3e
       -0.07727563 0.0009040907 -0.039411105 0.16098446
000300 76 7d f4 3c 67 55 13 3e 8d 05 38 3c 25 38 16 bd
       0.02984498 0.14388047 0.011231792 -0.036674637
000310 60 aa e5 3b c3 81 ed bd 26 a2 ce 3d 4a 8e 4f bd
       0.0070088357 -0.11597016 0.10089521 -0.050672807
000320 0b ad 9c 3d b9 8b 90 bd 3e f5 e2 3d cf c5 1b 3e
       0.07650193 -0.070579 0.110819325 0.15212177
000330 30 0b 03 3e 7b 26 52 3d 14 fd 94 bc 30 87 57 3d
       0.12797236 0.05130623 -0.018187083 0.05261916
000340 18 c3 6e bc d5 e0 46 bd d9 d8 b1 3d 82 9d a0 3d
       -0.014572881 -0.04855426 0.086839385 0.07842542
000350 b5 13 16 3d 5f ad a9 3d 4b 08 4d bd 32 3c 3e 3d
       0.036639888 0.08285021 -0.050056737 0.046444125
000360 43 52 ec 3d 60 af 8a bd 90 c4 7d bc b4 01 70 bc
       0.11539128 -0.067717314 -0.015488759 -0.014648844
000370 22 9d e2 bc 20 e4 75 bd 10 ac df 3c cf 37 fc bb
       -0.027662817 -0.06003201 0.027303725 -0.0076970826
000380 04 5f 8a 3d 2f 4e 17 be 83 84 57 be 25 4f 21 bd
       0.06756404 -0.14775918 -0.21046643 -0.03938212
000390 f0 54 a1 bd 7c ed ad 3d 96 04 64 3d 64 80 63 3d
       -0.07877529 0.08492562 0.055668436 0.055542365
0003a0 26 70 38 3d e1 52 cd 3c 4b 55 2f bc 80 f1 5d 3b
       0.045028828 0.025063934 -0.010701488 0.003386587
0003b0 07 10 cd bd 70 a2 cf bd 7e 45 2a 3d a0 d8 d3 bb
       -0.100128226 -0.10138404 0.04157018 -0.0064650327
0003c0 b3 65 0b bd 58 28 0b be 57 24 64 3e 0f 49 57 bd
       -0.034032535 -0.13589609 0.22279488 -0.05255991
0003d0 2f 75 2c be e6 7d 04 3d be 7e e5 3d f8 f8 36 3c
       -0.16841577 0.03234663 0.11205815 0.011167757
0003e0 77 e6 ac bc 80 a9 b2 bc f8 8e 94 bd bd 07 8d be
       -0.021105988 -0.02180934 -0.072538316 -0.27544966
0003f0 a9 ac 36 bd 67 1e 14 3e 51 52 9d bd 1f 80 5c 3d
       -0.044598255 0.14464723 -0.07681716 0.053833123

network.2.bias f4 [128]
000000 84 f8 e8 3c 4d b3 38 3d cb 21 9f 3d a9 1d ff bc
       0.028438814 0.04509287 0.07770117 -0.031142073
000010 bf 27 5c 3d 43 98 7e bd 77 eb 88 3d 4a 2a 1d 3d
       0.053748842 -0.062156927 0.06685536 0.038370408
000020 06 8e 0c bd 08 3c 93 3d a2 76 2f bc 24 72 5f bd
       -0.03431513 0.071891844 -0.010709437 -0.054552212
000030 aa 77 ac 3a 11 64 4f bb da 43 8b bd e4 37 97 bd
       0.0013158221 -0.0031645338 -0.06800051 -0.07383707
000040 3f bf 1e bd 75 58 91 3d 63 87 32 3d d1 71 ae 3d
       -0.038756605 0.0709695 0.043586146 0.085178025
000050 b6 6d c4 bc be 6f 99 3d cf ac 37 3d 9e 94 58 bd
       -0.023978096 0.07492016 0.044842537 -0.052876107
000060 a0 93 8a 3b bc a7 d4 bb b6 22 40 3d d0 77 57 3d
       0.004229024 -0.006489722 0.046908103 0.052604496
000070 97 a4 bc 3c 48 a7 ef bc 5d f3 be 3d 9b 12 8a bd
       0.023027701 -0.02925457 0.093237616 -0.0674183
000080 19 22 88 bc f8 b9 8a 3d a6 66 d1 bc a2 f3 92 bd
       -0.016617822 0.06773752 -0.025561642 -0.071753755
000090 78 d2 3b 3c 70 13 9a bc 8f 1c 93 bd a7 07 d4 3d
       0.011463754 -0.018808097 -0.071831815 0.10353022
0000a0 e1 ae f2 3c 01 81 b8 3d bf c6 43 bd 52 08 78 3c
       0.029624404 0.090089805 -0.04779696 0.0151387025
0000b0 8b f9 88 bc fc 82 85 bd 37 aa 58 3d 2f f1 58 bd
       -0.016720554 -0.06519124 0.052896705 -0.052964386
0000c0 71 e5 70 3d ca a9 8e bd ab 23 a3 3d a7 d7 f2 bc
       0.058812562 -0.069659784 0.079657875 -0.029643847
0000d0 a5 dc bc bd f8 1c 2a bc 6a 27 f6 bc 71 f2 8a 3d
       -0.09221772 -0.010382883 -0.030048091 0.06784523
0000e0 81 92 75 3d 40 65 61 3d 60 da 63 3c 20 f2 60 bd
       0.05995417 0.0550282 0.013907045 -0.05491841
0000f0 7b 68 13 3d 4b 3e 9d 3c 54 ff 07 bd 27 8a e9 bb
       0.035988312 0.019194743 -0.033202484 -0.0071270647
000100 26 5e 44 3d 97 ea b6 3c 28 00 84 bc 12 14 ea bc
       0.04794135 0.022328658 -0.016113356 -0.028574023
000110 9b db 92 bc 00 08 f0 b9 98 cb 2f bc 96 ff 2a bd
       -0.017926982 -0.00045782328 -0.010729693 -0.041747652
000120 2c ff a0 3d 40 34 68 bd 3d ca be bd 76 55 9e bd
       0.0786117 -0.056690454 -0.09315918 -0.07731144
000130 be c9 a0 3c bb 95 92 bd eb 97 3b 3d eb 20 a1 bd
       0.019627448 -0.07157465 0.045799177 -0.07867607
000140 31 e3 46 bd bf 75 5e bd 0b 6f 87 bc b6 48 8f bc
       -0.04855651 -0.05431151 -0.016532442 -0.017490726
000150 53 ff b2 bc f2 87 11 3d 77 de 92 3d e0 52 ea 3c
       -0.021850264 0.03553004 0.07171338 0.028603971
000160 5b 5b b7 bd 61 73 1c 3c e8 49 6d bd 86 fc bf bd
       -0.089529715 0.009548993 -0.05793181 -0.09374337
000170 51 cd b4 bc e5 31 98 bc d1 99 2b bc 41 55 71 3d
       -0.022070559 -0.018578479 -0.010473684 0.058919195
000180 d1 83 da bc 46 50 d3 3c 3c b1 fe bc bc a3 60 bd
       -0.026674183 0.025795113 -0.031090371 -0.05484365
000190 a7 88 1b bd 54 80 c7 bc a6 bd 6e 3b fa f5 8f bd
       -0.03797212 -0.024353184 0.0036428957 -0.07029338
0001a0 ef 92 8b bd ca 3d 4a 3d ac 4d 9c bc 7e 8a 01 3d
       -0.06815135 0.049375333 -0.019080006 0.031626217
0001b0 83 12 9d 3d 7e c7 51 3d 36 39 12 3d 37 1b fa bc
       0.076695465 0.05121564 0.03569909 -0.030530555
0001c0 c8 0d a8 bc c0 b4 95 3b 37 4b 19 3c 87 dd 97 bd
       -0.020514384 0.004568666 0.0093563115 -0.074153
0001d0 36 aa 07 3d 71 8f 02 bd c8 a1 89 bd f8 6d 02 bb
       0.03312131 -0.031875078 -0.067203104 -0.0019901972
0001e0 65 38 a7 3c 07 24 94 bd 84 f5 ee bc 64 d1 f9 bb
       0.020412633 -0.07233434 -0.029169805 -0.0076238383
0001f0 12 54 a0 bd 0f d9 ee 3b 4b f6 98 3d 6e 88 cb 3c
       -0.07828535 0.007289059 0.07468852 0.024845328

network.4.weight f4 [8, 128]
000000 f7 26 57 bd 23 b3 7f 3e 0c fd 34 bd 78 6f 4b 3c
       -0.052527394 0.24970679 -0.044186637 0.012416713
000010 f4 ab bc 3c d2 d7 22 bd ab 27 90 3d f5 10 aa 3b
       0.023031212 -0.039756604 0.07038816 0.0051900097
000020 4c ab fd bc 2d 9e 9b bc 63 20 71 3b 40 31 bd bb
       -0.03096547 -0.018996323 0.0036792986 -0.0057736933
000030 44 af 01 3c 37 43 fb bc 03 11 ac bd ee 07 9a 3c
       0.007915322 -0.030671699 -0.08401682 0.01880261
000040 c7 c5 b9 bc e2 f9 9c bd c7 58 6f 3b ce 51 14 bd
       -0.022677315 -0.07664849 0.0036521421 -0.036210828
000050 a2 02 fe 3c 7b ab 60 bd ac 84 70 bd 16 51 83 3d
       0.031007115 -0.054851037 -0.058720276 0.0641195
000060 53 c0 7e bd 11 55 7d bb b0 25 e4 39 fa b0 86 3c
       -0.062195133 -0.003865544 0.00043515628 0.01644181
000070 2b a8 6b bd 5f 5d 84 3d fe e2 93 3d 15 5a e3 3c
       -0.057533424 0.064631216 0.0722103 0.027752915
000080 b9 bb 49 bc 45 4f f1 3c 46 9a b4 3d 27 9a 85 bc
       -0.012312823 0.029456744 0.08818488 -0.016308857
000090 0a e5 02 bd b6 97 7c bd 81 4b 08 bd 73 0c 89 3d
       -0.03195671 -0.06166812 -0.03327513 0.066918276
0000a0 c0 99 a4 bd 6c 23 f3 bc 7c c1 c6 3d 20 f0 8e bd
       -0.08037138 -0.029679976 0.09704873 -0.06979394
0000b0 e8 01 a5 b9 24 ac a8 bc 27 75 2f bd 80 2e 53 ba
       -0.00031472673 -0.020589896 -0.042836335 -0.000805594
0000c0 bf c4 54 bc 2a 32 19 bd 06 3b 8f bd 3a e1 84 3d
       -0.012986361 -0.037401356 -0.0699368 0.06488271
0000d0 35 f7 90 bd ac 91 af 3d a6 a9 41 3d d2 80 06 bd
       -0.07078401 0.085727066 0.04728093 -0.032837696
0000e0 3a dd 35 bc cd 5f 37 bb 10 2d 1d 3c d4 99 30 3c
       -0.011100108 -0.0027980686 0.009593263 0.010778863
0000f0 4a e3 88 3d 92 5e 2a bb 60 87 b4 3c 30 ee 05 3d
       0.06683977 -0.002599631 0.022037208 0.032697856
000100 d0 4c 98 bc 3d 08 30 3c 44 fe 59 3d c6 e4 4f 3d
       -0.018591315 0.010744152 0.053221002 0.050755285
000110 82 94 5c 3d fd e0 92 bd a8 28 98 3c 00 78 ac 34
       0.053852566 -0.07171819 0.018574074 3.2124808e-07
000120 4e 16 f0 3c c9 3f a4 3d 9e 08 bb bb dc c9 8a bc
       0.02930751 0.080199786 -0.0057078144 -0.016941957
000130 a2 1a 74 3b 62 30 22 bd 86 92 95 bd 6f 0e f7 bb
       0.003724732 -0.039596923 -0.07303338 -0.0075395624
000140 e1 99 89 3d 4c 60 0d bd b2 f3 c4 3b 8c ca 3b bd
       0.06718803 -0.034515664 0.006010496 -0.04584746
000150 5d 29 51 bd f2 88 69 3d d8 92 83 bd e8 7a c6 bc
       -0.051064838 0.057015367 -0.064244926 -0.024228528
000160 de c8 5e bc 77 e5 f2 3a d0 06 cc 3b 81 de 50 bd
       -0.013597695 0.0018531521 0.006226398 -0.050993446
000170 a1 d4 9f bb 07 c0 b1 bc 1b 2a 1c 3c 99 f2 36 3d
       -0.0048776423 -0.021698011 0.009531523 0.044664953
000180 5c 91 0a bc e3 30 a5 3d c8 f8 91 bd ba 98 78 3c
       -0.008457508 0.08065965 -0.071275294 0.015173132
000190 bc b8 8e bd c3 9d 92 3d c7 8f df 3c 59 ac 3b bd
       -0.06968829 0.07158997 0.027290238 -0.04581866
0001a0 02 a7 9c bd 11 de 02 bd 43 59 89 3d 39 76 7d 3d
       -0.07649042 -0.03195006 0.067064784 0.061880324
0001b0 f8 2c 9a bc 0a 86 99 3d 59 e9 14 bb 4c f3 36 bd
       -0.01882027 0.07496269 -0.0022722094 -0.04466562
0001c0 e8 ce 8c 3c c4 b6 4a bd b4 84 56 bd a5 bd 4f bd
       0.017188504 -0.049490705 -0.05237265 -0.05071797
0001d0 a8 14 42 3d d5 d7 bc 3d 82 7f c4 3c 6e 92 8f bb
       0.04738298 0.09220854 0.023986582 -0.0043814695
0001e0 c0 6e 07 3d f1 56 18 bd 21 f4 4b bd af df 29 3d
       0.033064604 -0.03719229 -0.049793366 0.041473087
0001f0 6f c6 79 bd 49 48 cb bc c7 aa 1e bd 91 5d 0e bc
       -0.060980257 -0.024814742 -0.038737085 -0.0086893
000200 d0 af 3d 3c 83 5a 5f 3e 6c 16 4e 3c 80 3a 9f 3d
       0.0115775615 0.21811871 0.012578588 0.0777483
000210 6a 8c 64 3d 65 ef e2 3c 08 7d b5 3d 67 17 a8 3d
       0.05579797 0.027702043 0.088617384 0.08207589
000220 c0 e3 da bc a0 da f5 bb 6f 6b 26 3c 70 09 9f 3b
       -0.026719928 -0.007502869 0.01015745 0.00485342
000230 a0 69 6e bd 88 51 a9 bc 52 8e f1 bc d3 af 42 bc
       -0.0582062 -0.02066876 -0.029486809 -0.01188274
000240 ad 5f 21 bd 67 2f 6b bd df 20 8e 3c fb 67 90 3d
       -0.039397884 -0.057418253 0.017349659 0.07051083
000250 3b 77 62 3d 71 b0 43 bd 25 90 45 bd bd 78 8b 3d
       0.05528949 -0.04777569 -0.04823317 0.068101384
000260 62 4e a4 3d 3a ae a8 3c c8 32 64 3a 26 3c e2 bc
       0.08022763 0.02059089 0.0008705077 -0.027616572
000270 1a 9b c6 3c 16 96 e7 bc d5 10 8c 3b d4 f1 13 3d
       0.02424388 -0.028269809 0.0042744675 0.036119297
000280 8a fe 91 bd 58 48 3c bd 90 1e a4 bc d4 d0 95 3d
       -0.071286276 -0.04596743 -0.020034105 0.073152214
000290 2b b3 8b 3d a4 2a a1 bd 24 8d 5a 3c 0e e1 c9 bc
       0.06821283 -0.07869461 0.013339315 -0.024643447
0002a0 82 27 e2 bc 42 4a a8 3d 1d 18 68 3c 54 e4 dd bb
       -0.02760673 0.082172886 0.014165905 -0.0067716036
0002b0 00 cd 8e 3c 94 cc 8e bc 12 a8 a7 3d d8 13 a5 3c
       0.017431736 -0.017431535 0.08186354 0.020151064
0002c0 c5 31 65 bc 36 03 a5 bd 60 c3 0e 3b 70 c2 c0 3b
       -0.013988917 -0.08057253 0.0021783933 0.0058825538
0002d0 2e 76 ff bc 30 dc aa bc 80 0d 7e bc 70 f4 71 bb
       -0.031184282 -0.020856947 -0.015506148 -0.0036919378
0002e0 b8 7c 58 3b 44 d3 ed 3c 1a ec 2f 3d 5b 27 90 bc
       0.0033033323 0.029031403 0.042949773 -0.017596891
0002f0 52 6a 98 3d 25 8a 73 bd 33 7a 32 bd 1c 5c 1c 3c
       0.07442154 -0.059457917 -0.04357357 0.009543445
000300 4a 6a 7b 3d 56 1f 1d bc e1 ae 22 3d 0f c9 86 3d
       0.061380662 -0.009589991 0.03971756 0.06581318
000310 de ca 87 bc 20 60 88 bd 24 b2 94 bc 3f f8 97 3c
       -0.016576227 -0.066589594 -0.01815135 0.01855099
000320 e2 65 11 bd 0a 9c 68 3d d2 64 1a bd b4 27 a3 bd
       -0.035497554 0.056789435 -0.037693806 -0.07966557
000330 14 4f d8 3c 96 d8 19 bd d5 49 82 bd 81 3e 03 bd
       0.026404895 -0.037560068 -0.063617386 -0.03204203
000340 51 97 a2 bd b9 82 82 bd 57 15 a1 3d 6c cb 9f bd
       -0.079390176 -0.063725896 0.078653984 -0.078024715
000350 10 51 f9 bc 3b 7c a1 bd 22 b4 45 3d b0 29 a1 3c
       -0.030434161 -0.07885023 0.04826749 0.019673198
000360 d9 3f 03 3d 09 ff 8e 3d 5e d2 8a bd e5 6a 61 3d
       0.03204331 0.06982238 -0.067784056 0.055033583
000370 6f 53 88 3d 0c aa a7 bc 03 0b 4c bd c6 76 ac bc
       0.06656539 -0.020466827 -0.04981519 -0.02105273
000380 8d 58 b0 3c 72 1b 18 bd 34 7c 0a 3d 2b b4 01 3d
       0.0215266 -0.03713555 0.033809856 0.031665962
000390 74 a0 8e 3c 8f c0 b4 3d 18 b1 8d bd 44 f0 69 3d
       0.017410494 0.0882579 -0.069185436 0.0571139
0003a0 5f 55 9d 3d 67 a8 3b bd 10 78 d2 3b b6 52 4f bd
       0.07682299 -0.045814898 0.006423004 -0.05061599
0003b0 37 d8 a1 3d c7 36 e7 3c d1 ea 36 bc 78 d9 34 bd
       0.07902568 0.028224362 -0.011164383 -0.044152707
0003c0 e3 82 ae 3c a8 ca 69 bd 0d 4a 0f bd 4c ed b6 3c
       0.021302646 -0.057078034 -0.03498273 0.022329949
0003d0 da c7 9a 3d 49 08 7a bd dd cf a7 bd 9c 00 55 3c
       0.0755765 -0.061043058 -0.08193944 0.013000634
0003e0 43 9f 3f bc da 4f 01 3d d0 21 8b bd 08 33 39 3b
       -0.011695686 0.031570293 -0.067935586 0.0028259177
0003f0 b8 7e ba bc 0e ce bf 3d 59 4f 8b 3d b3 e1 13 bd
       -0.022765502 0.09365474 0.06802244 -0.036103915

network.4.bias f4 [8]
000000 af 51 46 3d 4c 62 b8 bc 80 5d 9d bc 11 e7 31 3d
       0.048417743 -0.02250781 -0.019209623 0.043433253
000010 86 75 06 bc 88 cd a3 3d 4d 4e 55 bc ec bf 9f 3d
       -0.008206731 0.07998186 -0.013019157 0.07800278
