model_pth/final_correlation_model.pth (torch, 75112 bytes, 6 tensors)

network.0.weight f4 [128, 3]
0.43974748 -0.41783243 -0.09687883 0.023761561 0.2389163 -0.46880654 0.31981975 0.38146326
-0.30387563 0.4417277 -0.16960086 0.45093423 0.47870195 -0.4682146 0.064878225 0.10682488
-0.13944487 -0.036330353 0.18597919 -0.49102792 0.0051303506 0.3096147 -0.2398864 0.5644265
0.43206334 -0.1271477 -0.26103508 -0.36131537 0.22518158 -0.009671569 0.21022905 0.24974155
-0.37961867 0.39897642 -0.32098496 0.1064779 -0.30938762 0.53410447 -0.24327794 -0.08910978
-0.16411203 -0.36985227 0.3628767 0.34588903 -0.050055876 -0.35944182 0.3333734 -0.26172596
0.0838256 0.16195482 -0.19563365 -0.19657509 -0.30407476 0.34141222 0.015534822 0.23330696
-0.5039597 0.41365743 -0.3863534 0.087985426 -0.19164288 0.0131089315 -0.38978186 -0.32603443
0.44344646 0.13538176 0.044874053 0.44142234 -0.17142856 -0.37562695 0.4276153 0.31612235
0.36640814 0.33056828 -0.27454713 0.24483918 0.29290813 0.1709093 -0.022120604 0.46331957
-0.16897762 0.14738421 0.5833143 -0.3469639 -0.13505349 -0.22158024 -0.32039812 -0.22757354
-0.18217549 -0.27067766 -0.15454996 -0.54219323 -0.019673824 0.20083156 0.3396047 0.10108715
0.2297655 0.35947606 0.04120572 0.43566966 0.53225124 -0.15884319 -0.32840466 0.18010265
-0.10913649 0.5127167 0.04966716 -0.28126338 -0.13698706 0.19202328 -0.4634149 -0.24509305
0.13523762 0.27683887 0.5000669 -0.13509293 0.46941614 -0.13486437 0.47796062 -0.35177296
-0.21881777 -0.2454969 0.05253762 0.48921168 -0.5580657 -0.4687019 -0.46625975 0.20633322
-0.09306095 0.013453662 -0.28795722 -0.1757344 0.03432721 -0.09976038 -0.5038491 0.2886247
-0.09995046 -0.4527552 -0.24183923 0.31028467 -0.40222415 0.4007593 0.5497685 0.4226411
0.2103149 0.40296718 -0.057176523 0.12510264 -0.25749674 -0.45027193 -0.5192027 -0.5564525
-0.3528009 -0.018647939 0.09482847 0.14380555 -0.25117952 0.03309164 -0.23760156 -0.6205111
-0.10199044 0.10681637 0.38485062 0.039089322 -0.37132245 -0.15652487 0.09186669 -0.24013671
0.013876911 0.04703908 0.50224835 0.31244174 0.15360452 0.049315322 0.068671644 -0.5193928
-0.26327878 0.35443896 -0.3251123 0.032132924 -0.44924802 0.26919046 -0.18864813 0.42635652
-0.18036488 0.026379835 0.41790316 -0.014867941 0.4094077 0.53998363 -0.42263505 -0.2254163
0.51743174 -0.46811023 0.58168215 -0.5424954 -0.32515767 -0.36807844 -0.2593761 -0.11168274
-0.18452588 -0.16265076 0.5990942 -0.5172209 0.102983475 -0.10693827 -0.24683625 0.11541062
-0.6373068 0.52752036 0.023630599 0.018833421 0.13204734 -0.48145613 0.37847167 -0.079715595
-0.3823778 0.35751384 -0.13062409 0.5326115 -0.5313779 -0.09376073 0.2575714 -0.25480914
-0.23671648 -0.033928096 0.032933533 -0.33390808 -0.21164642 -0.063431725 0.34572062 0.20946367
-0.1734292 -0.05345994 -0.11404141 0.48786643 -0.6140261 -0.36460054 0.23845471 0.35251185
0.22864065 -0.30576393 0.22762209 -0.34926483 0.09014982 0.14638124 -0.18281302 0.5128536
-0.36667013 0.28636017 -0.09841889 -0.088361114 0.68737125 0.27482036 -0.46459305 -0.21306321
00000000: 9526 e13e 22ee d5be 6868 c6bd 9ba7 c23c
00000010: 79a6 743e 6907 f0be 6abf a33e 274f c33e
00000020: 9695 9bbe 222a e23e d9ab 2dbe dae0 e63e
00000030: 6c18 f53e d3b9 efbe e0de 843d 01c7 da3d
00000040: a3ca 0ebe 23cf 14bd 5471 3e3e 0368 fbbe
00000050: 801c a83b d185 9e3e c8a4 75be 417e 103f
00000060: 6837 dd3e 0233 02be 64a6 85be 54fe b8be
00000070: 0096 663e 8075 1ebc 4946 573e 40bc 7f3e
00000080: 615d c2be a346 cc3e 2458 a4be 1611 da3d
00000090: 0e68 9ebe 12bb 083f da1d 79be 307f b6bd
000000a0: fc0c 28be 475d bdbe faca b93e 5e18 b13e
000000b0: 6407 4dbd c208 b8be ebaf aa3e f200 86be
000000c0: c2ac ab3d 7cd7 253e 3054 48be fb4a 49be
000000d0: b0af 9bbe 95cd ae3e c485 7e3c 05e8 6e3e
000000e0: 8103 01bf e8ca d33e 1dd0 c5be b431 b43d
000000f0: 083e 44be d8c6 563c 7d91 c7be fced a6be
00000100: 6a0b e33e 84a1 0a3e dbcd 373d 1c02 e23e
00000110: f88a 2fbe 2d52 c0be 65f0 da3e cada a13e
00000120: d999 bb3e 3f40 a93e 7191 8cbe 1fb7 7a3e
00000130: 0ef8 953e d902 2f3e 4536 b5bc 3938 ed3e
00000140: 7808 2dbe e3eb 163e 1654 153f 41a5 b1be
00000150: 764b 0abe eee5 62be 390b a4be 0a09 69be
00000160: 368c 3abe 4396 8abe 5842 1ebe 2dcd 0abf
00000170: 002b a1bc caa6 4d3e abe0 ad3e c806 cf3d
00000180: a647 6b3e 3f0d b83e 54c7 283d 1810 df3e
00000190: 9e41 083f caa7 22be a824 a8be d46c 383e
000001a0: f482 dfbd 6741 033f cb6f 4b3d c101 90be
000001b0: 5646 0cbe c0a1 443e b844 edbe acf9 7abe
000001c0: bb7b 0a3e d3bd 8d3e 6204 003f cd55 0abe
000001d0: 5057 f03e e319 0abe 41b7 f43e 961b b4be
000001e0: c411 60be 8a63 7bbe b031 573d f479 fa3e
000001f0: 65dd 0ebf b2f9 efbe 99b9 eebe 0449 533e
00000200: bd96 bebd c06c 5c3c 216f 93be b8f3 33be
00000210: b09a 0c3d 2c4f ccbd 41fc 00bf 9ec6 933e
00000220: d4b2 ccbd 88cf e7be b4a4 77be a2dd 9e3e
00000230: 53f0 cdbe 5330 cd3e a1bd 0c3f 6a64 d83e
00000240: ca5c 573e b751 ce3e ee31 6abd e81a 003e
00000250: 9dd6 83be 0b8a e6be 78ea 04bf ac73 0ebf
00000260: 52a2 b4be 90c3 98bc 6e35 c23d c341 133e
00000270: 9a9a 80be 198b 073d d34d 73be d1d9 1ebf
00000280: 5de0 d0bd 8ac2 da3d 240b c53e 201c 203d
00000290: fa1d bebe 0e48 20be 9a24 bc3d 66e6 75be
000002a0: fc5b 633c 0dac 403d 5993 003f 5df8 9f3e
000002b0: 814a 1d3e ddfe 493d b8a3 8c3d edf6 04bf
000002c0: 7acc 86be 0679 b53e 1f75 a6be d09d 033d
000002d0: d603 e6be 55d3 893e fa2c 41be 674b da3e
000002e0: 92b1 38be 861a d83c 67f7 d53e aa98 73bc
000002f0: e39d d13e 5e3c 0a3f 9f63 d8be 88d3 66be
00000300: 6876 043f 25ac efbe 1fe9 143f fbe0 0abf
00000310: 117b a6be c774 bcbe f2cc 84be ecb9 e4bd
00000320: 5af4 3cbe ec8d 26be 3d5e 193f 9768 04bf
00000330: 00e9 d23d 7402 dbbd a4c2 7cbe 675c ec3d
00000340: 8a26 23bf 930b 073f f594 c13c 8c48 9a3c
00000350: 6b37 073e 6b81 f6be 0ac7 c13e ee41 a3bd
00000360: 06c7 c3be 0e0c b73e 52c2 05be 3a59 083f
00000370: 6208 08bf a005 c0bd 66e0 833e 5876 82be
00000380: ce65 72be 30f8 0abd 50e5 063d 00f6 aabe
00000390: d7b9 58be 7ee8 81bd 4b02 b13e a57d 563e
000003a0: 6d97 31be cff8 5abd 8b8e e9bd a1c9 f93e
000003b0: d130 1dbf ecac babe 792d 743e 6f7c b43e
000003c0: c620 6a3e 178d 9cbe c415 693e d7d2 b2be
000003d0: 78a0 b83d f7e4 153e 5633 3bbe 604a 033f
000003e0: 30bc bbbe cd9d 923e d88f c9bd acf6 b4bd
000003f0: 90f7 2f3f 41b5 8c3e 24df edbe 3e2d 5abe

network.0.bias f4 [128]
0.5186487 0.5960136 -0.08568099 -0.2089815 -0.29296386 0.44130573 0.01914835 -0.21223204
-0.0673812 -0.45885867 0.52086973 -0.07139302 0.48714876 0.22990417 -0.41052788 0.30130014
0.19429058 0.2186232 0.5818553 0.35519797 0.5507248 0.43845358 -0.009552709 -0.572589
0.39820844 -0.4050335 -0.21888693 -0.061493423 0.36916655 -0.25000247 0.5122956 0.1876212
-0.42720407 0.28201127 -0.5342054 0.47696427 -0.23974818 -0.48414344 -0.22344616 0.47607163
-0.3166251 -0.16958049 -0.14820768 0.19650829 -0.5137236 0.13988024 -0.27456164 0.3729134
-0.25176904 0.09259564 -0.16903153 -0.3139366 0.59678876 0.18981859 -0.56494427 0.3188845
-0.21779782 -0.08360067 -0.5474008 -0.19471234 -0.018176507 -0.30888113 -0.38236594 -0.124914795
0.0041630403 0.4532901 -0.090373605 -0.20133583 0.20662326 -0.29610515 0.20672707 0.35598752
0.39312902 0.061849415 0.443957 -0.5555817 -0.16616687 0.0076651243 0.30958498 0.10962049
0.37013423 0.10313552 0.49914563 0.24817124 -0.46916774 0.063045025 0.51542693 -0.63534737
-0.37107524 -0.008689165 -0.4378329 -0.4241217 0.52328557 -0.41473505 0.0946849 -0.23515461
-0.5839572 -0.40942428 0.5231958 -0.30781433 0.16563922 0.40915525 0.37763622 0.12841953
-0.021769045 -0.51125914 0.11404179 -0.22181483 -0.20267409 -0.20550969 -0.5811154 0.26528552
0.53023416 0.38433084 -0.42745647 -0.5636517 0.46961764 -0.029295862 0.426682 0.6054433
0.60341823 -0.57586294 -0.11188899 0.086995035 -0.49308446 0.40889445 -0.012647791 0.43338585
00000000: 29c6 043f 5994 183f 8479 afbd 3fff 55be
00000010: 5cff 95be d3f2 e13e 00dd 9c3c 5b53 59be
00000020: 28ff 89bd 86ef eabe b857 053f 8136 92bd
00000030: 906b f93e 006c 6b3e b630 d2be 0344 9a3e
00000040: 1cf4 463e c3de 5f3e 78f4 143f 82dc b53e
00000050: 4dfc 0c3f fd7c e03e f782 1cbc 3195 12bf
00000060: fae1 cb3e 8d60 cfbe e523 60be 87e0 7bbd
00000070: 6603 bd3e 5300 80be ce25 033f c61f 403e
00000080: 7eba dabe c863 903e afc1 08bf a934 f43e
00000090: 8c80 75be a6e1 f7be 12cf 64be a9bf f33e
000000a0: af1c a2be 82a6 2dbe c1c3 17be 7839 493e
000000b0: 6483 03bf c43c 0f3e 5893 8cbe 81ee be3e
000000c0: dfe7 80be c8a2 bd3d 9a16 2dbe 4cbc a0be
000000d0: 26c7 183f ce5f 423e 30a0 10bf d444 a33e
000000e0: 6406 5fbe d436 abbd 7522 0cbf ac62 47be
000000f0: e6e6 94bc ab25 9ebe 78c5 c3be 54d3 ffbd
00000100: 1d6a 883b a415 e83e cc15 b9bd fb2a 4ebe
00000110: 0c95 533e 189b 97be 43b0 533e ff43 b63e
00000120: 3548 c93e d055 7d3d 554e e33e 9a3a 0ebf
00000130: a627 2abe b92b fb3b ec81 9e3e b580 e03d
00000140: 3c82 bd3e b738 d33d 0490 ff3e 9a20 7e3e
00000150: c136 f0be c01d 813d 05f3 033f 20a6 22bf
00000160: 93fd bdbe 005d 0ebc a22b e0be 7b26 d9be
00000170: 0bf6 053f 2758 d4be 28ea c13d 5fcc 70be
00000180: 387e 15bf 0fa0 d1be 29f0 053f d799 9dbe
00000190: 549d 293e cc7c d13e 8959 c13e 6980 033e
000001a0: ff54 b2bc e1e1 02bf be8e e93d 6d23 63be
000001b0: cc89 4fbe 2271 52be fbc3 14bf 81d3 873e
000001c0: 6dbd 073f 03c7 c43e 93db dabe 7a4b 10bf
000001d0: b971 f03e e0fd efbc 1076 da3e 55fe 1a3f
000001e0: 9e79 1a3f c16b 13bf 0e26 e5bd 742a b23d
000001f0: 9175 fcbe 9d5a d13e ae38 4fbc c0e4 dd3e

network.2.weight f4 [128, 128]
-0.10547527 0.06612137 0.0155086145 -0.05113513 -0.05493492 -0.040739562 -0.05082303 -0.0066597774
-0.009812757 0.059786446 0.012799525 -0.17609848 0.052987672 -0.07340742 -0.1937477 0.039186336
0.008581031 -0.035609476 0.115456626 -0.07716268 0.15769854 -0.05772261 0.02114119 -0.07631641
0.100427315 -0.014802241 0.04371503 0.04563774 -0.029268436 0.08562147 -0.034824792 0.022650084
0.04289536 0.063581586 0.06992146 0.0060382048 0.07121802 0.010749465 0.06128864 0.02242601
-0.07201218 0.039707743 -0.0926335 0.018161245 -0.07007116 0.041038685 -0.04708945 0.06815658
-0.025707202 0.078821756 0.011797145 -0.0628177 0.09251762 0.044702295 0.036288254 0.1940273
0.0963251 0.070947014 0.009581864 -0.026314847 -0.08024942 0.06444971 -0.029116847 0.06868283
-0.04962654 -0.008955993 -0.01921516 -0.26086703 -0.004257135 -0.058946114 0.0996882 -0.042016536
0.1080801 -0.08655783 -0.0653389 0.028218001 0.022433871 -0.06906452 -0.008170059 0.008901856
0.0013636021 0.0014876155 0.042940028 -0.03198267 -0.10988738 -0.056475375 -0.034760546 0.09350734
0.08378322 -0.004216768 0.019470312 -0.01531923 -0.033036258 0.08262315 0.013392687 0.033621527
-0.029293356 -0.020036535 0.036201827 0.06185312 -0.05188048 -0.06833662 -0.12964442 -0.04078023
-0.10979248 0.06756016 -0.060922865 0.07012425 -0.08278739 0.07872143 -0.087625444 -0.025472987
0.038363926 -0.02518276 0.07510614 -0.0078105256 -0.00954429 -0.003779538 0.014824659 0.18644433
0.07984839 -0.08055463 0.04863576 -0.012787949 -0.033046998 -0.0255932 0.0019236661 0.055140607
-0.0025886784 0.113381244 -0.031012809 -0.07054058 0.064767174 -0.008990532 0.050473757 -0.020057019
-0.045911435 0.053210698 0.09844554 -0.121048756 0.06924219 -0.050022922 -0.08480633 0.027812475
-0.011495864 -0.03744844 0.03189236 -0.066375546 0.09234945 0.069485955 0.04834241 0.07302586
0.01050887 0.007343551 -0.04091556 -0.020572044 0.024680153 -0.03996749 0.060779415 -0.052116685
-0.0061136843 0.09600805 -0.015709192 -0.028740114 0.036468953 -0.052924693 -0.03211247 -0.019856747
0.03842392 0.03068772 -0.07730663 -0.02945736 -0.0044761673 -0.04994296 -0.013327949 0.072484836
0.06613257 -0.054901462 -0.084810436 0.08163944 -0.026934033 -0.056405075 -0.021087341 0.13459648
-0.07138586 0.006449212 0.08655108 -0.029532813 -0.046305522 -0.07021397 0.030112851 0.08208076
-0.013598923 0.0719813 0.05678027 -0.112891376 -0.04438594 0.07593406 -0.07330281 0.074220926
0.10245067 -0.02563075 0.005314474 0.03763724 0.006621201 0.04846463 0.07853953 -0.011296352
0.018983204 0.012719518 -0.050116517 0.07971884 -0.07101218 0.058391295 0.0107036065 -0.065165676
-0.026165817 0.03892202 0.023114845 -0.044242848 0.071554296 -0.016774684 0.04870289 0.053223748
0.0679554 0.030414697 -0.024431543 0.032013714 -0.043804746 -0.07378021 -0.005961499 0.028635314
-0.044999465 0.023756541 -0.00028815115 -0.07711287 -0.06538176 -0.07535245 0.021772748 0.07505538
0.058543008 -0.09535409 0.04511285 0.026504181 0.0457583 0.024800077 -0.070448615 0.017716471
-0.023247626 0.06996941 0.05930127 -0.048082262 -0.11272933 0.012651214 0.095887534 0.015872544
00000000: 6b03 d8bd a46a 873d d817 7e3c 1273 51bd
00000010: 7003 61bd 87de 26bd cf2b 50bd 433a dabb
00000020: b0c5 20bc a2e2 743d 19b5 513c 2953 34be
00000030: 9a09 593d a156 96bd cc65 46be da81 203d
00000040: 7497 0c3c 3edb 11bd 8674 ec3d 7807 9ebd
00000050: ba7b 213e 8b6e 6cbd 4a30 ad3c c74b 9cbd
00000060: d6ac cd3d 1985 72bc 880e 333d a4ee 3a3d
00000070: 5cc4 efbc 4f5a af3d 71a4 0ebd ab8c b93c
00000080: 0cb3 2f3d 1037 823d fb32 8f3d 22dc c53b
00000090: c1da 913d 861e 303c cc09 7b3d c0b6 b73c
000000a0: 1f7b 93bd 96a4 223d a2b6 bdbd e4c6 943c
000000b0: 7881 8fbd 2e18 283d dee0 40bd ad95 8b3d
000000c0: e997 d2bc 4d6d a13d d048 413c 91a6 80bd
000000d0: e179 bd3d c119 373d fea2 143d 18af 463e
000000e0: 1846 c53d ab4c 913d 40fd 1c3c 3c92 d7bc
000000f0: cf59 a4bd 36fe 833d 7486 eebc 95a9 8c3d
00000100: 3345 4bbd 28bc 12bc 1c69 9dbc 5d90 85be
00000110: 707f 8bbb 7b71 71bd 5429 cc3d 8819 2cbd
00000120: 1959 dd3d 3b45 b1bd 67d0 85bd 7029 e73c
00000130: 3dc7 b73c b371 8dbd b6db 05bc 17d9 113c
00000140: e5ba b23a 18fc c23a e2e1 2f3d 4300 03bd
00000150: a20c e1bd b952 67bd 1361 0ebd c780 bf3d
00000160: 8996 ab3d d02c 8abb 3480 9f3c 82fd 7abc
00000170: 0751 07bd 5336 a93d 006d 5b3c bab6 093d
00000180: 9ff8 efbc a923 a4bc 5e48 143d b259 7d3d
00000190: a080 54bd 12f4 8bbd 82c1 04be 2c09 27bd
000001a0: e1da e0bd fb5c 8a3d 418a 79bd 4e9d 8f3d
000001b0: 6f8c a9bd b338 a13d f874 b3bd baac d0bc
000001c0: 7e23 1d3d 134c cebc 3fd1 993d 70ef ffbb
000001d0: a75f 1cbc 20b2 77bb 20e3 723c 43eb 3e3e
000001e0: 8d87 a33d d3f9 a4bd 4a36 473d 8c84 51bc
000001f0: 4a5c 07bd d5a8 d1bc 8623 fc3a 1edb 613d
00000200: d1a6 29bb 6d34 e83d 930e febc 9477 90bd
00000210: a7a4 843d 064d 13bc 92bd 4e3d 9e4e a4bc
00000220: a10d 3cbd 76f3 593d d19d c93d 69e8 f7bd
00000230: d9ce 8d3d d6e4 4cbd f1ae adbd fdd6 e33c
00000240: 2659 3cbc 8963 19bd 90a1 023d e7ef 87bd
00000250: b521 bd3d a74e 8e3d b102 463d 958e 953d
00000260: 652d 2c3c 2ca2 f03b 1397 27bd b486 a8bc
00000270: 082e ca3c f3b4 23bd d6f3 783d 4e78 55bd
00000280: 4d55 c8bb de9f c43d 90b0 80bc 6370 ebbc
00000290: 7860 153d 90c7 58bd 5e88 03bd 9eaa a2bc
000002a0: 6662 1d3d d064 fb3c f052 9ebd 9050 f1bc
000002b0: d0ac 92bb fd90 4cbd 785d 5abc ee72 943d
000002c0: 8370 873d 5be0 60bd 18b1 adbd 9432 a73d
000002d0: c3a4 dcbc 0209 67bd 5cbf acbc a9d3 093e
000002e0: c032 92bd e953 d33b b141 b13d ccee f1bc
000002f0: dcaa 3dbd 58cc 8fbd 3aaf f63c f519 a83d
00000300: 04ce 5ebc ef6a 933d 6e92 683d 9833 e7bd
00000310: 08ce 35bd 5183 9b3d c91f 96bd 2401 983d
00000320: a8d1 d13d 94f7 d1bc 0a25 ae3b 8229 1a3d
00000330: a9f6 d83b d982 463d 55d9 a03d 5614 39bc
00000340: aa82 9b3c 8665 503c fa46 4dbd a243 a33d
00000350: d56e 91bd b62b 6f3d 2e5e 2f3c 9575 85bd
00000360: b259 d6bc b26c 1f3d 585b bd3c fd37 35bd
00000370: 0f8b 923d 106b 89bc ae7c 473d 2501 5a3d
00000380: 332c 8b3d 3e28 f93c a924 c8bc d020 033d
00000390: 9b6c 33bd 141a 97bd ae58 c3bb 9b94 ea3c
000003a0: 5c51 38bd 149d c23c fe12 97b9 5aed 9dbd
000003b0: dfe6 85bd 6352 9abd c35c b23c a3b6 993d
000003c0: cbca 6f3d 0149 c3bd 40c8 383d 4c1f d93c
000003d0: 0e6d 3b3d 8829 cb3c 5d47 90bd 2222 913c
000003e0: ce71 bebc 1f4c 8f3d e3e5 723d e8f1 44bd
000003f0: a3de e6bd 0a47 4f3c af60 c43d 2307 823c

network.2.bias f4 [128]
0.027118562 -0.0375157 0.004881255 0.065934375 -0.053155594 0.06496676 -0.036161184 -0.121124454
0.013465324 0.006110816 0.01602266 0.09558047 0.031129107 0.04773843 0.06487727 0.08288937
-0.07162341 0.05773005 0.07046979 0.07498267 -0.026282296 0.025807183 -0.073608935 -0.07081633
0.01311668 -0.01237718 -0.06018028 -0.041425228 -0.028816083 -0.030073257 0.069631554 -0.031671964
-0.0023936594 -0.049568728 0.045411278 -0.027986063 -0.029610597 0.051091496 -0.04753304 0.083653964
-0.0067047053 -0.06181726 -0.062087696 -0.009059928 -0.02680488 -0.052424178 -0.020901695 -0.030389741
0.027432337 0.0405578 -0.029149545 0.02023696 0.0530907 0.069836885 0.04272204 -0.063482106
-0.05096221 0.057501994 -0.0018990183 0.057237852 -0.08297129 -0.050925996 0.07597672 -0.07447885
0.07203904 7.5293996e-05 0.035798687 -0.06010226 0.03577125 -0.07743518 0.05544073 0.007822364
-0.01369975 0.012879181 -0.09066624 -0.03712614 0.04879766 -0.088923976 -0.056125525 -0.051030476
-0.028849797 0.05160663 0.044867747 -0.024670435 -0.05617315 0.033491705 -0.06086777 -0.05389246
0.00084609765 0.03346048 -0.039104786 0.07727326 -0.06430031 -0.059929974 0.06477769 0.012518339
-0.06334681 -0.056133356 0.06586828 -0.04283204 -0.005744147 0.055278312 -0.0077841915 -0.025191754
-0.018413574 0.059602264 -0.089889206 0.011878961 0.011585854 0.0019218208 -0.028304333 0.015965195
0.056372024 0.03559951 -0.03945243 0.03283355 -0.027086353 -0.06040647 0.086719416 0.05828501
-0.023854129 0.013691635 -0.02044942 -0.014642668 -0.068652086 0.061471425 -0.08303541 -0.047301438
00000000: bf27 de3c 10aa 19bd eff2 9f3b 9a08 873d
00000010: aeb9 59bd 4b0d 853d c01d 14bd 1910 f8bd
00000020: aa9d 5c3c 3d3d c83b f441 833c b2bf c33d
00000030: 7802 ff3c 5f89 433d 60de 843d e7c1 a93d
00000040: 4baf 92bd 5876 6c3d 7752 903d 8490 993d
00000050: f84d d7bc 9669 d33c 48c0 96bd 2708 91bd
00000060: 58e7 563c a8c9 4abc 997f 76bd 80ad 29bd
00000070: b50f ecbc 315c f6bc fd9a 8e3d 76ba 01bd
00000080: f1de 1cbb 9408 4bbd 2d01 3a3d 0743 e5bc
00000090: ec91 f2bc 5145 513d 01b2 42bd c552 ab3d
000000a0: 25b3 dbbb 1834 7dbd ab4f 7ebd 1870 14bc
000000b0: e895 dbbc bcba 56bd 083a abbc e8f3 f8bc
000000c0: c8b9 e03c f01f 263d 07cb eebc fbc7 a53c
000000d0: a275 593d a406 8f3d 4efd 2e3d e802 82bd
000000e0: c0bd 50bd 3687 6b3d 7be8 f8ba 3d72 6a3d
000000f0: daec a9bd c797 50bd af99 9b3d 5e88 98bd
00000100: 3489 933d 28e7 9d38 a5a1 123d ca2d 76bd
00000110: e084 123d 5696 9ebd d215 633d 5f29 003c
00000120: eb74 60bc 3303 533c 39af b9bd 9411 18bd
00000130: 0ee0 473d c61d b6bd e1e3 65bd 5505 51bd
00000140: 6956 ecbc 7961 533d 3ec7 373d a719 cabc
00000150: d115 66bd 992e 093d 7c50 79bd 57be 5cbd
00000160: a7cc 5d3a db0d 093d 572c 20bd 7141 9e3d
00000170: e2af 83bd 2279 75bd 2aaa 843d b819 4d3c
00000180: f9bb 81bd 17ec 65bd f3e5 863d a670 2fbd
00000190: 6639 bcbb 836b 623d 8812 ffbb f05e cebc
000001a0: 10d8 96bc 8121 743d d517 b8bd f99f 423c
000001b0: 98d2 3d3c 9be5 fb3a 7dde e7bc 71c9 823c
000001c0: 5ae6 663d cbd0 113d df98 21bd 797c 063d
000001d0: 33e4 ddbc c66c 77bd f399 b13d 43bc 6e3d
000001e0: bc69 c3bc e152 603c 8b85 a7bc cde7 6fbc
000001f0: 7799 8cbd 76c9 7b3d 780e aabd 27bf 41bd

network.4.weight f4 [8, 128]
0.029991208 0.06267716 -0.055928998 -0.005155197 -0.07823098 0.04103095 -0.07763068 0.009610063
-0.030710384 -0.014380943 -0.042530425 0.007537951 0.0061686463 -0.080695614 -0.05904804 0.03517827
0.025542505 0.2204165 0.0935382 -0.004968249 -0.044004332 0.05097163 -0.011859529 0.06263648
0.09581513 0.006860487 0.085209176 0.09351809 -0.039885476 0.040980037 -0.072061844 0.07296433
0.025470708 -0.05592466 -0.05284457 0.0028396593 -0.06701707 -0.045271106 0.040145345 0.0302713
-0.00068567746 -0.03371944 0.0050585354 -0.044662602 -0.01865159 -0.0027501837 -0.05578522 -0.017269105
0.027518034 0.055063374 0.009354105 0.020200156 -0.0025543666 -0.027369333 -0.058374733 -0.0010203919
0.022689328 -0.04768095 0.09534908 -0.01080197 -0.07408625 -0.019172166 0.0140425265 -0.04078994
0.04952642 0.031753264 -0.012585806 0.059787013 0.055293806 -0.0017495826 -0.07446157 0.009685771
-0.047708087 -0.007698386 -0.040317886 0.07715208 0.062040307 -0.055205766 -0.0737077 -0.008125224
-0.016278343 -0.0070477556 -0.073884964 -0.080130175 0.0564538 -0.07822948 -0.066308275 -0.04027687
0.060109902 -0.04182386 -0.04885513 0.027521245 -0.046455666 -0.0573109 -0.009244571 0.03857868
0.016903361 -0.032726973 0.041761495 -0.017625123 -0.016202122 0.078481555 0.011563716 0.07181345
-0.0056382073 0.0025728792 -0.016690496 -0.06071462 -0.059263535 0.016744534 -0.009841032 -0.013356675
0.011618987 0.016833961 0.01150544 0.035983603 0.0017429683 -0.04871657 0.0074411556 0.09607807
-0.0121662915 0.028785342 -0.0054131136 -0.05353207 -0.017248295 -0.035531033 -0.018256627 -0.03357594
0.08937096 -0.01171486 -0.010242482 -0.009301674 0.07871618 0.04289227 0.04285244 -0.05252485
-0.018912677 0.022199472 0.08291667 -0.0035146987 0.029397763 -0.022784647 -0.0012382941 -0.014944208
0.06313028 0.11361701 0.065814406 0.078955024 -0.055485185 0.012327949 -0.009021106 0.035364654
0.052947514 0.07078711 -0.010450684 -0.0074168644 0.05307761 0.007025099 0.0047149123 0.018349148
0.0344706 -0.05316376 -0.029186903 -0.07844939 0.05777015 -0.03109119 0.05267075 -0.017295696
0.017027272 0.0058517605 0.053979762 0.07057602 -0.005605772 -0.033460815 -0.060125694 -0.060633823
-0.049534723 -0.0085598845 -0.057206526 0.06710158 0.029627504 0.047998827 0.058451436 -0.024358522
-0.04337504 0.061689325 0.09472754 -0.01318901 -0.059473716 -0.024431065 -0.017327586 0.066457905
0.031767864 -0.046692804 0.040487714 -0.07307001 -0.03721871 0.0761792 -0.015881673 -0.026166392
0.011727014 0.010348627 -0.017488806 -0.05397997 0.043132655 -0.036288664 -0.063574106 -0.08294374
-0.018903662 0.08911679 -0.0071237683 -0.004795702 0.051552437 0.0058345646 0.055777363 0.07394971
0.008950475 0.039005857 -0.011714012 -0.02556324 -0.055624314 -0.017857209 0.077186495 0.058898218
-0.025213158 0.025155842 -0.07331004 0.037781052 0.023019724 -0.008903064 -0.016827038 0.0051894486
-0.0072525274 0.011831076 -0.027588328 -0.030891737 0.05643835 0.07635433 -0.0006070396 0.012823166
-0.004256673 0.050390895 0.055774905 0.0009564533 0.075612314 -0.02134699 0.04866012 0.0011688371
-0.071421176 -0.048917223 -0.024999015 -0.054340854 0.0720099 -0.015652122 0.017218545 0.07373498
00000000: 1fb0 f53c e25c 803d ce15 65bd edec a8bb
00000010: 9037 a0bd 1210 283d d5fc 9ebd 8773 1d3c
00000020: 5894 fbbc 0c9e 6bbc 6234 2ebd eb00 f73b
00000030: 5b22 ca3b be43 a5bd 5cdc 71bd 1717 103d
00000040: 843e d13c ddb4 613e f590 bf3d b1cc a2bb
00000050: e33d 34bd a1c7 503d 784e 42bc 8e47 803d
00000060: b93a c43d f0cd e03b 2682 ae3d 6a86 bf3d
00000070: f45e 23bd afda 273d 2995 93bd 536e 953d
00000080: f2a7 d03c 4211 65bd 8c73 58bd 9419 3a3b
00000090: 3f40 89bd 326e 39bd 726f 243d 84fb f73c
000000a0: 09bf 33ba 651d 0abd 12c2 a53b 22f0 36bd
000000b0: 38cb 98bc 6d3c 34bb 0b7f 64bd f077 8dbc
000000c0: 806d e13c 228a 613d f641 193c cc7a a53c
000000d0: 2967 27bb a735 e0bc 581a 6fbd acbe 85ba
000000e0: f8de b93c 1a4d 43bd 6146 c33d bffa 30bc
000000f0: 88ba 97bd f20e 9dbc a012 663c 5a13 27bd
00000100: 37dc 4a3d b60f 023d b234 4ebc 3ae3 743d
00000110: c27b 623d 4052 e5ba 4f7f 98bd 11b1 1e3c
00000120: 8e69 43bd be42 fcbb 5e24 25bd e901 9e3d
00000130: fa1d 7e3d 711f 62bd 10f4 96bd a91f 05bc
00000140: 295a 85bc dcf0 e6bb 0051 97bd 4a1b a4bd
00000150: 1a3c 673d c736 a0bd a2cc 87bd 5cf9 24bd
00000160: cd35 763d 7f4f 2bbd 511c 48bd 3c74 e13c
00000170: 4c48 3ebd d6be 6abd 8b76 17bc ae04 1e3d
00000180: eb78 8a3c b80c 06bd 1a0e 2b3d 9062 90bc
00000190: 50ba 84bc f0ba a03d be75 3d3c ee12 933d
000001a0: b6c0 b8bb c09d 283b 82ba 88bc e5af 78bd
000001b0: 52be 72bd d52b 893c 483c 21bc f5d5 5abc
000001c0: 905d 3e3c 60e7 893c 5081 3c3c 8b63 133d
000001d0: 5074 e43a 078b 47bd f0d4 f33b 94c4 c43d
000001e0: 2055 47bc 3dcf eb3c 7d60 b1bb 7244 5bbd
000001f0: 4c4c 8dbc fd88 11bd ec8e 95bc ed86 09bd
00000200: 1f08 b73d afef 3fbc 15d0 27bc 0c66 18bc
00000210: f335 a13d ceaf 2f3d 0a86 2f3d 4c24 57bd
00000220: c2ee 9abc abdb b53c 37d0 a93d dc56 66bb
00000230: 94d3 f03c dea6 babc 414e a2ba 8dd8 74bc
00000240: 734a 813d 09b0 e83d b4c9 863d 2cb3 a13d
00000250: 6f44 63bd 2afb 493c 43cd 13bc 87da 103d
00000260: 7edf 583d d5f8 903d 5939 2bbc 2b09 f3bb
00000270: e867 593d cd32 e63b 8d7f 9a3b f450 963c
00000280: 0b31 0d3d 3ec2 59bd 5f19 efbc 13aa a0bd
00000290: 65a0 6c3d f4b2 febc 49bd 573d b4af 8dbc
000002a0: c77c 8b3c 20c0 bf3b e219 5d3d 298a 903d
000002b0: a0b0 b7bb 350e 09bd 5c46 76bd 2c5b 78bd
000002c0: ece4 4abd c23e 0cbc 6451 6abd 8e6c 893d
000002d0: 61b5 f23c 6b9a 443d c66a 6f3d 868b c7bc
000002e0: 07aa 31bd f2ad 7c3d 8300 c23d b816 58bc
000002f0: b69a 73bd a823 c8bc 95f2 8dbc 151b 883d
00000300: 051f 023d f440 3fbd 72d6 253d bba5 95bd
00000310: a572 18bd d703 9c3d 481a 82bc e75a d6bc
00000320: a922 403c 4a8d 293c af44 8fbc 1a1a 5dbd
00000330: deab 303d 6ca3 14bd 2433 82bd 68de a9bd
00000340: dadb 9abc dd82 b63d 806e e9bb 4425 9dbb
00000350: a628 533d e02f bf3b ce76 643d f272 973d
00000360: 03a5 123c 9bc4 1f3d 21ec 3fbc 006a d1bc
00000370: 52d6 63bd 4849 92bc f413 9e3d 423f 713d
00000380: d38b cebc a013 ce3c 9323 96bd 4ec0 1a3d
00000390: dc93 bc3c 28de 11bc dbd8 89bc 400c aa3b
000003a0: 9ca6 edbb 21d7 413c eb00 e2bc ab10 fdbc
000003b0: e62b 673d a95f 9c3d bd21 1fba 4218 523c
000003c0: 907b 8bbb af66 4e3d 3a74 643d 7fba 7a3a
000003d0: a1da 9a3d e2df aebc d64f 473d aa33 993a
000003e0: 4445 92bd 6d5d 48bd bcca ccbc 8494 5ebd
000003f0: ed79 933d e138 80bc e80d 8d3c 5d02 973d

network.4.bias f4 [8]
0.07611396 0.08838001 -0.029835831 0.0015237962 -0.006692502 0.07765188 -0.0012820174 -0.023460725
00000000: a3e1 9b3d 9400 b53d 466a f4bc 1eba c73a
00000010: c74c dbbb f307 9f3d 5e09 a8ba b530 c0bc
