model_pth/final_correlation_model.pth (torch, 75112 bytes, 6 tensors)

network.0.weight f4 [128, 3]
0	0xbee1bb84	-0.44088376
1	0x3ea87a5f	0.32905862
2	0x3ed11756	0.40838116
3	0xbd979143	-0.07400753
4	0x3d27437b	0.04083584
5	0x3e9e5416	0.30923527
6	0x3d691600	0.056905746
7	0xbed2cbd2	-0.41171128
8	0xbeb5fec0	-0.3554592
9	0x3ea82e3b	0.3284777
10	0x3e520581	0.20509912
11	0x3e23853c	0.15968794
12	0xbebb9c66	-0.3664276
13	0x3ed184b2	0.4092155
14	0xbed82388	-0.42214608
15	0xbed54d8c	-0.41660726
16	0x3e21bd44	0.15794855
17	0x3e971111	0.29505208
18	0x3dd49968	0.103808224
19	0xbdf3958c	-0.11893758
20	0xbeb4c112	-0.3530355
21	0xbd402225	-0.046907563
22	0xbeff4f68	-0.4986527
23	0x3f012b4b	0.50456685
24	0xbe7f17f2	-0.24911478
25	0xbe62f7ae	-0.22164795
26	0xbdccfdc0	-0.100093365
27	0xbdfe79ac	-0.12425551
28	0xbe93340c	-0.28750646
29	0x3e9a446a	0.3013032
30	0xbed6f64d	-0.41984788
31	0xbda36022	-0.0797732
32	0x3d8ac88b	0.06776532
33	0xbea4309b	-0.32068333
34	0xbe8ee1e9	-0.2790673
35	0xbef4daf9	-0.47823313
36	0x3ecc2e9e	0.39879316
37	0x3da91616	0.08256166
38	0x3e6314f7	0.22175966
39	0xbd147ae0	-0.036249995
40	0x3ea698f6	0.32538575
41	0x3e38c8b2	0.18045309
42	0x3efcb2a0	0.4935503
43	0xbef03fd5	-0.469237
44	0xbda2fa48	-0.079578936
45	0x3a383a6f	0.000702775
46	0x3ef9c674	0.4878422
47	0xbf10e78f	-0.5660333
48	0x3e839435	0.2569901
49	0xbea4d293	-0.32191905
50	0x3f3b0d27	0.73066944
51	0xbe150357	-0.14552055
52	0x3e43a958	0.19107568
53	0xbe47d830	-0.19516063
54	0xbebec98f	-0.37263152
55	0xbef3c303	-0.4760972
56	0xbf0accce	-0.5421876
57	0xbe4a6b64	-0.19767529
58	0xbca83e60	-0.020537555
59	0xbf0d3275	-0.55155116
60	0xbdaee42f	-0.08539616
61	0x3e4f4d51	0.20244338
62	0x3ecc51dd	0.39906207
63	0x3ea459be	0.32099718
64	0x3ee4c5e2	0.44682223
65	0x3ec3d7b6	0.38250512
66	0x3e028949	0.12747683
67	0xbea2f34f	-0.31826255
68	0x3edf9989	0.43671826
69	0xbf087864	-0.533087
70	0xbdeb17ec	-0.11479172
71	0x3d147720	0.03624642
72	0x3ce667e0	0.028125703
73	0xbb973b80	-0.0046152472
74	0xbdd7d59c	-0.1053879
75	0xbe3cc20e	-0.18433401
76	0xbe8d2e3e	-0.27574342
77	0xbea00963	-0.31257161
78	0xbf13030e	-0.57426536
79	0x3e9c58d0	0.3053651
80	0x3f0185f6	0.50595033
81	0x3e7194bc	0.23591894
82	0xbe5fb9d0	-0.21848226
83	0x3d78b7e0	0.060722232
84	0x3efbea09	0.49201992
85	0xbeee8104	-0.46582806
86	0x3ee4b661	0.44670394
87	0xbf2708cb	-0.6524779
88	0xbe132079	-0.14367856
89	0x3f0b5e92	0.5444118
90	0x3be27ed3	0.0069120913
91	0xbf11b329	-0.56914
92	0x3eb68eda	0.35655862
93	0x3daa50e0	0.08316207
94	0xbf08694f	-0.5328569
95	0xbecbfb38	-0.39840102
96	0xbdaf4418	-0.0855791
97	0xbec8a022	-0.39184672
98	0xbeed823c	-0.46388423
99	0x3d7295c0	0.059224844
100	0xbf043c40	-0.51654434
101	0xbd6b4510	-0.05743891
102	0x3e7c9d19	0.24669303
103	0xbd54120a	-0.051775016
104	0xbdb5dd2b	-0.08880075
105	0xbe4e8e72	-0.20171526
106	0xbee6452a	-0.44974643
107	0xbdf6dfdc	-0.120544165
108	0xbea7d15c	-0.32776916
109	0x3f0348d0	0.5128298
110	0x3e125af7	0.14292513
111	0x3ec5f240	0.38661385
112	0xbe97320f	-0.2953038
113	0xbec61966	-0.38691252
114	0xbec3a56c	-0.38212144
115	0xbd966965	-0.07344321
116	0x3e8bf9ef	0.27339122
117	0x3e9d9cbf	0.3078365
118	0x3e20b113	0.15692548
119	0x3eb54278	0.35402274
120	0x3ec00926	0.3750698
121	0x3de637d0	0.11241114
122	0xbefef732	-0.4979797
123	0x3ebc2b4c	0.36751783
124	0xbe91f78d	-0.2850918
125	0xbedb7a34	-0.4286667
126	0x3f1dfded	0.61715585
127	0xbed18b09	-0.40926388
128	0xbc836743	-0.01604045
129	0xbef4387c	-0.47699344
130	0x3d0e1840	0.034691095
131	0xbe257a88	-0.16160023
132	0xbf13756e	-0.5760106
133	0xbd93a370	-0.072089076
134	0xbea2a976	-0.31769913
135	0x3e9d5c83	0.30734643
136	0x3ee4bb8c	0.44674337
137	0x3dd75f6e	0.10516249
138	0x3d564bcc	0.05231838
139	0x3ed9415b	0.42432675
140	0xbd880366	-0.06641273
141	0xbf07f0cc	-0.531018
142	0x3ee966fa	0.45586377
143	0x3ede8b4a	0.43465644
144	0x3e9a9700	0.3019333
145	0x3d8bca79	0.06825728
146	0x3e8c37e8	0.27386403
147	0x3e240972	0.16019228
148	0xbeea0735	-0.45708624
149	0x3ed949d6	0.42439145
150	0x3dd6b7eb	0.10484298
151	0x3db0e8e9	0.08638174
152	0xbdaf48bc	-0.08558795
153	0x3e4ea850	0.20181394
154	0xbe8eb0b0	-0.27869177
155	0xbeb14d66	-0.34629363
156	0xbf1b1016	-0.6057142
157	0x3e80ec6e	0.25180382
158	0x3dc6752c	0.096903175
159	0xbeac5067	-0.33655092
160	0x3e3f32bf	0.18671702
161	0x3eac599c	0.33662117
162	0x3e88f926	0.26752585
163	0x3e74b982	0.2389889
164	0x3ea34f94	0.3189665
165	0x3e89eff3	0.2694088
166	0x3d7198f4	0.058983758
167	0xbdd04a70	-0.10170448
168	0xbeacea74	-0.33772624
169	0x3ef437a9	0.47698715
170	0xbc520206	-0.012817865
171	0x3ecc2650	0.3987298
172	0x3eda2cbe	0.4261226
173	0xbd6efb0a	-0.05834488
174	0xbf1d988b	-0.6156089
175	0x3f064843	0.5245401
176	0xbe388e8e	-0.1802313
177	0xbd5c4b5e	-0.053782813
178	0xbd2f624a	-0.042818345
179	0xbca4a558	-0.020098373
180	0x3ef2a662	0.47392565
181	0x3f094095	0.5361417
182	0xbe675858	-0.22592294
183	0xbe214b5a	-0.157514
184	0x3d6a2a90	0.057169497
185	0xbf056a2b	-0.52115124
186	0x3d934596	0.07191007
187	0xbf008072	-0.5019599
188	0x3ee566a8	0.44804883
189	0xbed6cf67	-0.4195511
190	0x3e9eacbe	0.30991167
191	0xbcaf1a14	-0.02137474
192	0x3ee2ed29	0.44321564
193	0x3ec03617	0.37541267
194	0xbe867e13	-0.26268062
195	0xbe1a583b	-0.1507272
196	0xbd2a3e9b	-0.04156361
197	0xbc2e4fb5	-0.010639121
198	0x3e88061c	0.2656716
199	0x3db012f6	0.085973665
200	0xbe10e184	-0.14148527
201	0xbe0a920f	-0.1353228
202	0x3e915ccd	0.28391114
203	0x3ee5a6eb	0.4485391
204	0x3ed3b5e4	0.4134971
205	0xbe46fd8c	-0.19432658
206	0xbd37a550	-0.04483539
207	0x3ef71a82	0.4826241
208	0xbd55c3cd	-0.052188683
209	0x3ecb1b58	0.396693
210	0xbeca08f1	-0.39459947
211	0x3e6e4dcc	0.23271865
212	0x3ed9c21b	0.42530903
213	0x3c913b95	0.017728606
214	0x3f10e787	0.5660328
215	0xbe76415c	-0.2404837
216	0x3e03c735	0.1286896
217	0xbc79aaf2	-0.01523851
218	0x3ec6c30b	0.3882068
219	0x3eeabef8	0.45848823
220	0xbf0075bf	-0.50179666
221	0x3deb4998	0.11488646
222	0xbef8f9e6	-0.48628157
223	0x3a410000	0.0007362366
224	0xbeb5d1ca	-0.3551162
225	0x3b841cce	0.004031754
226	0x3ea48b49	0.32137516
227	0xbc4ff9fe	-0.01269388
228	0xbea06fca	-0.31335288
229	0x3f010e7b	0.5041272
230	0x3d5ccda6	0.05390706
231	0x3d42c6e0	0.047552943
232	0xbe43b998	-0.19113767
233	0x3dcff3f0	0.10153949
234	0xbf0ff920	-0.5623951
235	0xbe7eacf0	-0.24870658
236	0x3e398504	0.18117148
237	0xbef1e6ea	-0.47246486
238	0x3e978fdc	0.29601943
239	0x3e9b3dc4	0.3032056
240	0x3eb68ea6	0.35655707
241	0x3f0ce2c8	0.5503354
242	0x3e8dc3e1	0.27688506
243	0x3c2a50ea	0.010395268
244	0x3ca3f7df	0.020015655
245	0x3e26c883	0.16287427
246	0x3e7cfcb8	0.2470578
247	0xbd4dc7c0	-0.050239325
248	0xbefbb8f1	-0.49164537
249	0x3e312f87	0.17303286
250	0xbed93f3e	-0.42431062
251	0x3f06ce37	0.5265841
252	0x3f116d1d	0.5680712
253	0xbed8e624	-0.42363083
254	0x3d2610e2	0.040543444
255	0x3d1920f8	0.037384957

network.0.bias f4 [128]
0	0x3eb85701	0.3600388
1	0xbe6ec8d3	-0.23318796
2	0x3f097590	0.5369501
3	0x3ed01816	0.40643376
4	0xbed02e3c	-0.40660274
5	0xbe505b77	-0.20347391
6	0xbed87b4d	-0.4228157
7	0x3ed8adad	0.42320004
8	0x3e5d7814	0.21627837
9	0xbf013d42	-0.50484097
10	0x3f02bffd	0.510742
11	0x3e7ac328	0.24488509
12	0x3ea64dc5	0.32481208
13	0x3eee8a56	0.46589917
14	0xbc5d33c0	-0.013501108
15	0x3f01f845	0.50769454
16	0xbe981529	-0.29703644
17	0x3e21884e	0.15774652
18	0x3edb76e4	0.42864144
19	0xbf099ba3	-0.5375311
20	0x3e7e4302	0.24830249
21	0x3cde86cc	0.027163886
22	0x3d3bbe50	0.045835793
23	0xbeb764c5	-0.3581907
24	0xbe9a7562	-0.3016768
25	0xbe6d8310	-0.23194528
26	0x3f0afc22	0.54290974
27	0xbee6b530	-0.4506011
28	0x3e342a2c	0.17594212
29	0xbde0a4af	-0.10968911
30	0x3ef527fe	0.47882074
31	0xbf108bd9	-0.5646339
32	0xbeb21c3c	-0.34787166
33	0xbf0103e4	-0.5039656
34	0x3e8a903b	0.27063164
35	0x3ee9a270	0.45631742
36	0xbe7c3b96	-0.24632105
37	0xbeb3196c	-0.34980333
38	0x3e23dd90	0.16002488
39	0xbefe35fc	-0.49650562
40	0xbe93c3ed	-0.28860417
41	0x3e4ded84	0.20110136
42	0x3ea0084a	0.31256324
43	0xbebaaab4	-0.3645836
44	0xbebd729f	-0.3700151
45	0xbd52fa90	-0.051508486
46	0xbee1a89d	-0.44073954
47	0x3e8598dd	0.26093188
48	0xbcba8456	-0.02276818
49	0x3ec40553	0.38285312
50	0x3cb887d4	0.022525705
51	0xbe959970	-0.29218626
52	0x3e5725ed	0.21010561
53	0x3dc3a9ab	0.09553846
54	0xbe8d8031	-0.27636865
55	0x3eb905ee	0.36137336
56	0xbdf6594b	-0.1202875
57	0xbe844870	-0.25836515
58	0x3e9fc869	0.31207588
59	0x3dfbb073	0.122895144
60	0xbe4a773d	-0.19772048
61	0x3de0e6c0	0.10981512
62	0xbe418357	-0.18897758
63	0xbe596e2d	-0.21233435
64	0x3d9b21c3	0.07574799
65	0x3e76d8d8	0.24106157
66	0x3f0c4347	0.5479016
67	0xbf16bf05	-0.5888522
68	0xbe9c9012	-0.30578667
69	0xbe9b0bab	-0.3028234
70	0xbe94c9be	-0.29060167
71	0xbd1e3e12	-0.038633414
72	0xbd9979d5	-0.07493941
73	0x3d672744	0.05643393
74	0x3e707754	0.2348302
75	0xbf0b9037	-0.5451693
76	0xbeee5e91	-0.46556523
77	0xbebbfbdc	-0.3671559
78	0xbeb44b5b	-0.35213742
79	0xbf081dbb	-0.53170365
80	0xbd801031	-0.06253088
81	0xbe31ad92	-0.17351368
82	0xbe50ef10	-0.20403695
83	0x3e96445f	0.29349038
84	0x3ee06d34	0.43833315
85	0x3eaf7f13	0.34276637
86	0xbebb3daf	-0.36570498
87	0x3f0984f2	0.53718483
88	0x3eff6b34	0.49886477
89	0x3e5d8bce	0.21635363
90	0x3e801d20	0.2502222
91	0x3ed93391	0.42422155
92	0xbe1f5228	-0.15558684
93	0xbd040a00	-0.0322361
94	0xbecb9021	-0.397584
95	0x3f0a6be5	0.54070884
96	0x3cce0999	0.02515106
97	0x3eeb2dc7	0.45933363
98	0x3e7a7835	0.24459918
99	0xbe1ece92	-0.15508488
100	0x3ee707e9	0.45123222
101	0x3e6911f7	0.2276076
102	0xbf12f092	-0.5739833
103	0xbe17d796	-0.14828333
104	0x3eb676c6	0.35637492
105	0xbf06204e	-0.52393043
106	0x3d0e6de5	0.034772772
107	0xbf16a2fd	-0.5884245
108	0x3e8fa290	0.28053713
109	0x3e913dd6	0.2836749
110	0x3e9a8547	0.30179808
111	0xbec10747	-0.37700865
112	0x3d9c47c6	0.07630877
113	0xbebcf9d9	-0.3690937
114	0x3eb14bf8	0.34628272
115	0xbeec8639	-0.46196154
116	0x3f369f16	0.71336496
117	0x3e5bc305	0.21461113
118	0xbe87de44	-0.26536763
119	0x3ecfba5c	0.40571868
120	0xbf098fa8	-0.5373483
121	0xbea9de2f	-0.33177325
122	0xbe344654	-0.17604953
123	0xbcafd6c0	-0.021464705
124	0xbef91a9b	-0.4865311
125	0xbec15868	-0.3776276
126	0xbd969dc1	-0.07354308
127	0xbecf1da3	-0.404523

network.2.weight f4 [128, 128]
0	0xbd51128b	-0.051043075
1	0x3d63f5d9	0.05565438
2	0xbda28eb2	-0.07937373
3	0x3b7ac27d	0.0038262897
4	0xbd850009	-0.06494147
5	0x3c1ec935	0.009691526
6	0xbd473909	-0.048638377
7	0xbdc3b610	-0.0955621
8	0x3da4f0a9	0.08053715
9	0x3d7ff732	0.062491603
10	0xbd70ba63	-0.058771502
11	0x3cb48cd8	0.022039816
12	0xbdc9739e	-0.09836505
13	0xbbff5236	-0.0077917827
14	0xbb204860	-0.0024457201
15	0xbd62254f	-0.05521136
16	0xbda06361	-0.07831455
17	0x3aeff62e	0.001830762
18	0x3cde22f0	0.027116269
19	0x3c5b69e0	0.013391942
20	0xbd784dd5	-0.0606211
21	0xbd8f4803	-0.06996157
22	0x3d6f1053	0.058365177
23	0x3cea8180	0.028626204
24	0x3d4befca	0.049789228
25	0x3d0730b6	0.03300544
26	0x3c05b7ef	0.008161529
27	0x3d8f846b	0.070076786
28	0xbd1ff408	-0.039051086
29	0xbd6ead43	-0.058270704
30	0x3d97f29a	0.074193195
31	0xbceec06e	-0.029144492
32	0xbcff55d6	-0.03116886
33	0x39b30600	0.0003414601
34	0xbccf0fc9	-0.025276082
35	0xbd77fbc8	-0.06054285
36	0xbd1ada88	-0.037806064
37	0xbd6d3e38	-0.057920665
38	0x3d9bc4ab	0.07605871
39	0xbd9f57a6	-0.077803895
40	0x3d22446e	0.03961604
41	0x3c89a630	0.016802877
42	0x3c7d20ca	0.015449712
43	0xbd004410	-0.03131491
44	0xbc7e5008	-0.015522011
45	0x3d8ac957	0.06776684
46	0xbdb68571	-0.08912171
47	0xbd23e3ad	-0.04001205
48	0x3d9d2567	0.076731496
49	0xbda60892	-0.081071034
50	0x3baa8801	0.005204201
51	0x3da28eed	0.07937417
52	0x3d223cb9	0.03960869
53	0x3d9eff62	0.07763554
54	0x3d73cb72	0.059520192
55	0x3c929a56	0.017895859
56	0x3d4ffbcf	0.050777253
57	0x3cfbe998	0.030751035
58	0xbca12969	-0.019673066
59	0xbda96029	-0.08270294
60	0xbdc50acc	-0.096212
61	0xbca0123c	-0.019539945
62	0xbd8640ff	-0.06555366
63	0x3ca41e55	0.020033995
64	0xb9b27a35	-0.00034041857
65	0xbdb743a9	-0.08948452
66	0x3d42d1e7	0.04756346
67	0x3d083b6f	0.033259805
68	0xbd101a78	-0.035181493
69	0x3c96c792	0.01840571
70	0xbc9d9aa3	-0.019238776
71	0x3ce8f45f	0.028436838
72	0x3c08421c	0.008316543
73	0x3d56f184	0.05247642
74	0xbd49fc52	-0.049312897
75	0x3d47a63b	0.048742514
76	0x3d406b8f	0.046977576
77	0x3c750940	0.014955819
78	0xbd9a10b7	-0.07522719
79	0xbd3b0fb5	-0.045669276
80	0xbd60b35b	-0.054858547
81	0xbdafe97c	-0.085894555
82	0xbb8590c0	-0.0040760934
83	0xbbcb642d	-0.0062070102
84	0x3d43fe32	0.04784984
85	0xbd93dc9a	-0.07219811
86	0xbda581c4	-0.080813915
87	0x3d1804c2	0.037113912
88	0xbba67d4a	-0.0050808536
89	0x3bbc5f76	0.0057486845
90	0x3c89dce7	0.016828967
91	0xbc7114e5	-0.014714454
92	0xbdb870aa	-0.09005864
93	0xbd04567b	-0.032309037
94	0x3cc9ee5a	0.024649788
95	0x3be0af36	0.0068568243
96	0xbcdf05ac	-0.027224384
97	0x3d52a8d2	0.05143053
98	0xbdbb84db	-0.091561995
99	0xbb27eb88	-0.0025622565
100	0x3d132a9c	0.035929307
101	0x3d303f2e	0.043029003
102	0xbcac7720	-0.021052897
103	0xbd244dea	-0.040113367
104	0xbc144a54	-0.009050924
105	0x3d9a9c23	0.07549312
106	0x3c9475bd	0.018122548
107	0x3d272e60	0.04081571
108	0x3d73c33b	0.05951236
109	0xbd7c5f57	-0.06161436
110	0x3d302b23	0.04300989
111	0x3b6c2149	0.0036030582
112	0x3d81d807	0.06340032
113	0x3c8a5b44	0.016889222
114	0xbd6a6d50	-0.057233155
115	0x3cb0d4c6	0.021585833
116	0xbd82fbe1	-0.06395698
117	0xbd30c912	-0.043160506
118	0xbd51171c	-0.05104743
119	0xbc7db8c0	-0.015485942
120	0xbd9bddc9	-0.076106615
121	0xbc13ab5c	-0.009013023
122	0xbccb912c	-0.024849497
123	0xbc9f32bc	-0.019433372
124	0xbd6cd092	-0.057816096
125	0xbda8b423	-0.08237483
126	0xbd14fb5f	-0.03637254
127	0xbc6a8710	-0.014314428
128	0xbc56ed47	-0.013118095
129	0xbd949639	-0.07255215
130	0x3c4d6a08	0.012537487
131	0x3d3f200b	0.046661418
132	0x3d8bacf0	0.068200946
133	0xbd3aafb5	-0.045577724
134	0xbc8d4fe4	-0.017250009
135	0x3acfed90	0.0015863646
136	0x3c889e6c	0.016677104
137	0x3b4326e0	0.002977781
138	0x3de41066	0.1113594
139	0xbb4e9400	-0.003152132
140	0x3d9d8f98	0.07693404
141	0x3d85b5d9	0.06528825
142	0xbd84e377	-0.06488698
143	0x3df6c513	0.12049308
144	0xbd008234	-0.03137417
145	0x3da54737	0.08070224
146	0x3d5a2a1e	0.053262822
147	0x3b756720	0.00374455
148	0x3d972edd	0.07381985
149	0x3bbaf32a	0.005705257
150	0x3b1f20ab	0.0024280946
151	0xbc633068	-0.013866521
152	0xbc374958	-0.01118692
153	0xbcd02cf4	-0.02541206
154	0xbcd96153	-0.026535666
155	0x3d66d1de	0.05635249
156	0xbd230faa	-0.03980986
157	0xbda10c63	-0.07863691
158	0xbceb2d0a	-0.028708
159	0x3cef44c4	0.029207595
160	0x3cfc1fc0	0.030776858
161	0x3d729542	0.059224375
162	0x3d08708a	0.03331045
163	0xbcfc0f12	-0.030768905
164	0x3d59e90c	0.053200766
165	0x3c50aae8	0.01273606
166	0xbd3a2473	-0.045444917
167	0x3c273731	0.01020603
168	0x3d69b28e	0.05705505
169	0x3c456a48	0.012049265
170	0x3cd6ccb6	0.02622066
171	0xbae40fc0	-0.0017399713
172	0xbd763c18	-0.060115904
173	0x3d672c09	0.05643848
174	0xbd8c31fa	-0.0684547
175	0xbcc1750c	-0.023615383
176	0x3d981f89	0.0742789
177	0xbd9fcb1b	-0.07802411
178	0xbda27425	-0.07932309
179	0xbbbbe2c0	-0.005733818
180	0x3c288388	0.010285266
181	0xbd280068	-0.041016012
182	0x3cfb13a8	0.030649021
183	0xbd524bc1	-0.051341776
184	0xb9911572	-0.00027672533
185	0x3d266b4f	0.04062968
186	0x3bbe7d36	0.005813266
187	0xbb3cce27	-0.00288094
188	0x3d9d9682	0.07694723
189	0xbd98e4d3	-0.0746552
190	0x3d776aef	0.060404714
191	0x3d2c6f54	0.04209836
192	0x3b636dc0	0.0034702867
193	0x3bcc8b7e	0.0062422147
194	0xbccb7c4a	-0.02483954
195	0xbd7ab495	-0.061207373
196	0xbbb17c60	-0.005416438
197	0xbbc602bc	-0.0060428064
198	0xbd757d56	-0.059933983
199	0xbd0d166a	-0.034445204
200	0x3db38aa1	0.08766676
201	0xbdad8cb7	-0.08474105
202	0xbbe3f650	-0.006956853
203	0xbce2af3a	-0.027671445
204	0xbd70c3b5	-0.05878039
205	0x3d9ed051	0.07754577
206	0x3d52229e	0.051302545
207	0xbde235eb	-0.1104544
208	0x3db6c675	0.089245714
209	0x3d24edd9	0.04026589
210	0x3d9e57d1	0.077315934
211	0x3cc28dcc	0.023749255
212	0xbd85f34f	-0.06540548
213	0x3d7faead	0.062422443
214	0x3c216ef0	0.00985311
215	0xbbc612b0	-0.006044708
216	0xbd3be781	-0.045875076
217	0xbdcdc09a	-0.100465015
218	0x3d4b5765	0.049643893
219	0x3d7fe2ec	0.06247227
220	0xbb38807a	-0.002815275
221	0x3cf60fe0	0.030036867
222	0x3d3fa98b	0.04679255
223	0xbb4f1ffa	-0.0031604753
224	0x3db2ccde	0.087304816
225	0x3d7f4cdf	0.06232917
226	0xbb653a78	-0.0034977477
227	0x3d67b2bf	0.05656695
228	0xb9d86928	-0.00041277078
229	0xbd856da3	-0.06515052
230	0x3c6a29c8	0.014292188
231	0xbd9732a0	-0.07382703
232	0xbdcaf5b7	-0.09910148
233	0xbd5731ff	-0.052537914
234	0xbcb4efca	-0.022086997
235	0x3d49cf62	0.04927004
236	0xbdeed5a8	-0.116618454
237	0xbd93ffd8	-0.07226533
238	0x3df4ee02	0.11959459
239	0xbe20b043	-0.15692239
240	0xbd0e53c8	-0.03474787
241	0x3d1a985a	0.03774295
242	0x3bfdf050	0.0077495947
243	0xbddba65e	-0.107250914
244	0x3e2999d1	0.16562583
245	0x3e08fe0b	0.1337816
246	0xbd7e4c0a	-0.062084235
247	0xbd5baf02	-0.053633697
248	0xbd21492c	-0.039376423
249	0x3d8c8e14	0.06863037
250	0x3d8c1285	0.0683947
251	0xbd55f0b9	-0.052231524
252	0x3d22e940	0.039773226
253	0x3d0967b8	0.03354618
254	0x3d0f94ac	0.035053894
255	0x3ad36840	0.0016129091

network.2.bias f4 [128]
0	0x3ccde2ba	0.025132526
1	0x3da22ec0	0.07919073
2	0x3b4c2dd5	0.0031155248
3	0xbd58fcc0	-0.052975416
4	0xbd7c12a6	-0.061541222
5	0x3b7afedd	0.0038298883
6	0x3d4ae903	0.049538624
7	0xbdc922fc	-0.09821126
8	0x3c2166ac	0.009851139
9	0x3d1929c6	0.037393354
10	0xbda0edd8	-0.07857865
11	0x3d170563	0.03687037
12	0x3da28789	0.079360075
13	0xbd619607	-0.055074718
14	0xbdb286eb	-0.0871714
15	0x3cb4fce5	0.022093246
16	0x3d164d45	0.036694784
17	0xbd481132	-0.048844524
18	0x3db2ca12	0.08729948
19	0xbdc44be6	-0.09584789
20	0xbceff41c	-0.029291205
21	0xbcd3d6d6	-0.025859278
22	0x3d59a6c1	0.053137545
23	0xbd826edd	-0.06368802
24	0x3dda1766	0.10648994
25	0xbcc86758	-0.02446334
26	0x3cccab10	0.024983913
27	0xbc37a4af	-0.011208697
28	0x3d5bbbfa	0.053646065
29	0x3ddb2b2f	0.10701596
30	0x3d88fa89	0.06688411
31	0x3d91a901	0.07112313
32	0xbc6abafa	-0.014326805
33	0x3d40be4d	0.047056485
34	0x3d86c86e	0.06581198
35	0x3d6b226b	0.05740587
36	0xbcc87d38	-0.024473771
37	0xbd1dbcc2	-0.03851009
38	0xbd1665d2	-0.036718197
39	0xbd69251b	-0.056920152
40	0x3d6d1daa	0.057889618
41	0x3b60312e	0.0034209
42	0xbcb2b777	-0.021815998
43	0x3dc7537a	0.09732719
44	0x3dafc149	0.08581788
45	0x3d423fb7	0.047424044
46	0x3d49155a	0.049092628
47	0x3d18cec0	0.037306547
48	0xbda6a30f	-0.0813657
49	0x3ad9fbf2	0.0016630872
50	0xbca4a888	-0.020099893
51	0x3d6d5182	0.05793906
52	0xbcbac9ac	-0.022801243
53	0x3daa3729	0.08311302
54	0x3d3124ba	0.043247916
55	0x3d6c57a0	0.057700753
56	0xbd9c00cb	-0.07617339
57	0x3d09f226	0.033678196
58	0xbd9613b4	-0.07327977
59	0xbd6046a8	-0.054754883
60	0x3d9ea778	0.07746786
61	0xbcc9a680	-0.024615526
62	0xbc6bf8d8	-0.014402591
63	0xbd852541	-0.06501246
64	0x3d98963c	0.0745053
65	0xbd649377	-0.055804696
66	0xbd45ddc8	-0.04830721
67	0x3d2f18d7	0.0427483
68	0xbd2ed410	-0.042682707
69	0xbd3d0855	-0.046150524
70	0x3db72550	0.08942664
71	0x3ba6bfb5	0.005088771
72	0x3d191974	0.03737779
73	0x3d9a71ee	0.075412616
74	0x3ba55450	0.005045451
75	0x3d8e664a	0.06953104
76	0x3da2410d	0.07922564
77	0x3d96668f	0.0734378
78	0xbd9ab811	-0.07554639
79	0xbb8ec530	-0.0043570027
80	0x3e006ead	0.1254222
81	0xbbfa58ee	-0.007639996
82	0xbb80e31f	-0.003933325
83	0xbd31ebc3	-0.04343773
84	0xbda43c74	-0.08019343
85	0x3cf49214	0.029854812
86	0x3b191d6a	0.002336348
87	0x3c3b3420	0.011426002
88	0xbd386f00	-0.045027733
89	0xbc304490	-0.010758534
90	0xbd3f2810	-0.046669066
91	0xbdca307a	-0.098725274
92	0xbc555160	-0.01301989
93	0xbd935097	-0.07193106
94	0x3d205355	0.03914197
95	0x3d481ba9	0.048854504
96	0xbcc0fe0e	-0.023558643
97	0xbd9e314c	-0.077242464
98	0xbdb380c8	-0.087647974
99	0xbd19aab1	-0.0375163
100	0x3d91da4b	0.07121714
101	0xbdb43756	-0.08799617
102	0x3d814f3c	0.06313941
103	0xbd3394ab	-0.043842953
104	0x3d7146ae	0.058905296
105	0xbd3834cc	-0.044972226
106	0xbb3ff520	-0.0029290393
107	0x3d8cbd8e	0.06872092
108	0x3d86c4de	0.06580518
109	0x3dc6a71a	0.09699841
110	0x3a381600	0.0007022321
111	0xbd54112e	-0.051774196
112	0x3d54a29a	0.05191288
113	0xbd87a67e	-0.06623553
114	0x3b474340	0.0030405074
115	0xbda05247	-0.07828193
116	0x3d99c41a	0.075081065
117	0xbdae93da	-0.08524294
118	0x3da4ab85	0.08040527
119	0x3932bde7	0.00017046147
120	0xbd44fd9e	-0.04809343
121	0xbcca499c	-0.024693303
122	0xbd36cbca	-0.044627942
123	0x3d5be9ce	0.05368977
124	0xbcaa283b	-0.020771137
125	0x3c3dbfe1	0.011581392
126	0xbd7f3143	-0.06230284
127	0xbda06767	-0.078322224

network.4.weight f4 [8, 128]
0	0xbd60cb3a	-0.054881312
1	0x3d3b57eb	0.045738142
2	0x3d7be938	0.06150171
3	0xbcb13a6f	-0.021634309
4	0x3d6940ca	0.056946553
5	0x39d2096e	0.00040061347
6	0x3db58524	0.08863285
7	0x3cb253f0	0.02176854
8	0xbb69c946	-0.0035672947
9	0xbdabbbb0	-0.08385408
10	0xbd02ff28	-0.031981617
11	0x3c918666	0.017764281
12	0xbd8242e6	-0.06360416
13	0x3d59abfa	0.053142525
14	0xbd9cbd97	-0.07653349
15	0x3db17591	0.08665002
16	0xbba1935d	-0.004930897
17	0x3d0b0ac9	0.033945832
18	0xbd411501	-0.04713917
19	0xbc2e57b2	-0.010641025
20	0x3d47f639	0.0488188
21	0xbca736c0	-0.020411849
22	0xbab4749b	-0.0013767661
23	0xbc00a028	-0.007850684
24	0x3d52b1a5	0.051438946
25	0x3bfd9cf0	0.0077396557
26	0xbcc476e8	-0.02398248
27	0xbcbb8664	-0.02289123
28	0x3cc2e568	0.02379103
29	0x3d9cc2d7	0.0765435
30	0x3d4996df	0.049216148
31	0x3d4d9538	0.050191134
32	0x3c089d5d	0.0083383
33	0x3cf7e5d3	0.030260956
34	0xbd474fc8	-0.04866007
35	0x3d0ed54e	0.034871392
36	0x3c8c7b9c	0.017148785
37	0x3cf807a4	0.03027708
38	0x3c377007	0.011196143
39	0xb900c800	-0.00012281537
40	0xbbe4cb42	-0.006982238
41	0xbd08014e	-0.03320437
42	0x3d855904	0.06511119
43	0xbcb50026	-0.022094797
44	0x3d26b752	0.04070217
45	0xbd229c60	-0.039699912
46	0x3d43de19	0.04781923
47	0x3deaf834	0.11473122
48	0xbd8500ba	-0.06494279
49	0x3d4c24b9	0.04983971
50	0xbd75f64d	-0.060049344
51	0xbc6fb2af	-0.014630004
52	0x3d30c0ea	0.043152727
53	0xbd95a259	-0.07306356
54	0x3da3f9b9	0.08006615
55	0xbb183857	-0.002322694
56	0xbd7fbf5b	-0.06243835
57	0x3d917765	0.07102851
58	0xbbf90520	-0.007599488
59	0x3c852ec7	0.016257657
60	0xbc127bd3	-0.008940655
61	0xbd5d81be	-0.05407881
62	0xbd96cc2f	-0.07363164
63	0x3db3577d	0.087569214
64	0xbd071c8d	-0.032986213
65	0x3c2eef43	0.010677162
66	0xbcf969d3	-0.030445969
67	0x3d441962	0.04787577
68	0xba43b90c	-0.0007466234
69	0x3d87c1b6	0.06628744
70	0xbc5b62e2	-0.013390275
71	0x3c1eb946	0.009687727
72	0x3a8fd5f5	0.0010973798
73	0x3d5cf7c7	0.053947236
74	0x3d80626f	0.06268775
75	0x3d1e2fb2	0.038619705
76	0xbcb18ab8	-0.021672592
77	0xbdad851c	-0.08472654
78	0xbd7653b2	-0.06013841
79	0x3c329e98	0.0109020695
80	0x3d561720	0.052268147
81	0xbcd6fc4d	-0.026243353
82	0xbce0e594	-0.027453221
83	0x3d2ebb92	0.04265935
84	0x3d5586b2	0.05213041
85	0xbdaf3e96	-0.08556859
86	0x3d06caa4	0.032908097
87	0x3d08b47e	0.033375256
88	0x3cdac80f	0.026706723
89	0xbd2aa61e	-0.041662328
90	0xbd8f3572	-0.06992616
91	0x3d28b508	0.04118827
92	0x3d6dc452	0.058048554
93	0xbd941818	-0.07231158
94	0x3d198c6a	0.037487425
95	0x3cba45fa	0.022738446
96	0xbd526aac	-0.05137126
97	0xbb045d80	-0.0020197332
98	0xbb45fc46	-0.003021018
99	0x3d587fee	0.05285638
100	0xbd683f14	-0.05670078
101	0xbd859fba	-0.06524606
102	0xbbb02594	-0.0053755734
103	0x3cb69243	0.02228654
104	0xbd8e7740	-0.06956339
105	0x3cfec5ec	0.031100236
106	0x3d6b38f6	0.05742737
107	0x3d3229f8	0.043497056
108	0x3bb5c03a	0.005546597
109	0x3bc12615	0.0058944323
110	0x3d837e9d	0.06420634
111	0xbd3c31b3	-0.045945834
112	0xbda04797	-0.07826155
113	0x3cc18bcb	0.023626229
114	0x3c48c908	0.012254961
115	0x3b3da0e0	0.0028935
116	0xbc8f7a28	-0.017514303
117	0x3d0365e9	0.03207961
118	0xbd22e7e9	-0.039771948
119	0xbd8989f7	-0.06715768
120	0x3c59a338	0.013283543
121	0xbda735cd	-0.081645586
122	0x3d3f97b9	0.046775553
123	0xbd832f92	-0.06405558
124	0x3c88dfa3	0.0167082
125	0x3d0b68f6	0.034035645
126	0x3c68501d	0.014179257
127	0x3db1deba	0.0868506
128	0xbd1be518	-0.038060278
129	0x3cf0e53d	0.029406184
130	0x3c97316c	0.018456183
131	0x3d24266f	0.040075716
132	0xbd6504a1	-0.055912618
133	0xbd0bc18c	-0.034120128
134	0x3cffc970	0.031223983
135	0xbd464ed0	-0.048415005
136	0xbd8e5303	-0.06949427
137	0xbca86710	-0.020556957
138	0xbd82bd61	-0.063837774
139	0x3b49b151	0.0030775855
140	0x3bf10179	0.007354912
141	0xbd758bfe	-0.05994796
142	0xbb9930c0	-0.004675001
143	0x3d99e4d4	0.075143486
144	0xbd897091	-0.067109235
145	0x3d45e856	0.048317276
146	0x3bc0a0d7	0.0058785486
147	0x3d9a2118	0.075258434
148	0x3cc7ea70	0.02440378
149	0xbc6983a6	-0.014252579
150	0x3c20d92d	0.009817404
151	0xbd22780e	-0.039665274
152	0x3cdd6c71	0.027029248
153	0xbc9bc1a4	-0.019013233
154	0x3d788b4e	0.060679726
155	0x3d287eb3	0.041136455
156	0xbbcb7869	-0.0062094224
157	0x3cb4e6c4	0.022082694
158	0x3d5954e3	0.05305947
159	0x3d49fc11	0.049312655
160	0xbc6fe24a	-0.014641354
161	0xbd9d32dc	-0.07675716
162	0xbd4a1576	-0.049336873
163	0x3d0174f5	0.03160568
164	0xbd2171ea	-0.039415278
165	0xbcf84130	-0.030304521
166	0x3b611e9a	0.0034350515
167	0xbcd6591e	-0.026165541
168	0x3d565d87	0.05233529
169	0x3da0ba83	0.07848074
170	0xbca642e4	-0.020295568
171	0xbc82463f	-0.015902637
172	0x3d0d0591	0.034429137
173	0x3cf2cdd1	0.029639157
174	0x3d3d9a97	0.046290006
175	0x3c86049c	0.01635962
176	0x3b0e4f47	0.0021714733
177	0xbd01fb18	-0.031733602
178	0x3d52585a	0.05135379
179	0x3c3ddb7a	0.011587972
180	0xbd56bd03	-0.05242635
181	0x3c2a51c0	0.010395467
182	0xbdaae3e5	-0.08344249
183	0x3c3babdb	0.011454548
184	0xbcfa4a0e	-0.03055289
185	0xbdaed20d	-0.08536158
186	0x3d9b2291	0.075749524
187	0x3d6bfc20	0.057613492
188	0x3c7bab4d	0.0153606655
189	0xbd6def3a	-0.058089472
190	0x3bed6f80	0.007245958
191	0x3d5515db	0.052022796
192	0xbd96b333	-0.07358398
193	0xbd648965	-0.055795092
194	0xbc9ab430	-0.018884748
195	0x3d635606	0.05550196
196	0xbbd31090	-0.0064411834
197	0x3d7bde4b	0.061491292
198	0xbcc0cbec	-0.023534738
199	0x3d46afbb	0.048507433
200	0x3d7ba3a2	0.06143535
201	0x3dcbd390	0.09952462
202	0x3becb020	0.007223144
203	0x3cbef818	0.02331166
204	0xbd0746e7	-0.033026602
205	0xbdb01d71	-0.085993655
206	0xbd29e880	-0.041481495
207	0x3da84b29	0.08217461
208	0x3d89ff76	0.067381784
209	0x3ca89ff4	0.020584084
210	0xbd15c380	-0.036563396
211	0xbba9ecf0	-0.005185716
212	0x3d937d3b	0.0720162
213	0x3c671ac8	0.014105506
214	0x3c7f6268	0.015587427
215	0x3da99f4f	0.08282339
216	0xbd430abb	-0.047617655
217	0x3d8d282b	0.06892427
218	0xbdae45de	-0.0850942
219	0x3d12654d	0.03574114
220	0x3d82e029	0.063904114
221	0x3c0f4be4	0.008746121
222	0xbd2d8812	-0.042366095
223	0x3d7d34f4	0.06181808
224	0xbbba8556	-0.0056921644
225	0xbcdca6a6	-0.026934933
226	0xbd129aa7	-0.03579202
227	0xbd327083	-0.04356433
228	0xbceaaba9	-0.028646307
229	0x3d014968	0.031564146
230	0x3d650467	0.0559124
231	0xbca1c6b2	-0.019748066
232	0x3d02a0de	0.031891696
233	0x3bbd8540	0.005783707
234	0xbab46dc2	-0.001376562
235	0x3d2c1275	0.04200979
236	0x3db10df3	0.08645239
237	0x3dc57838	0.096420705
238	0x3d2e15e6	0.042501353
239	0xbd096cc3	-0.03355099
240	0xbcf3d7f5	-0.029766062
241	0xbc2d1570	-0.010564193
242	0x3b0c1a1c	0.0021377867
243	0xbc3e1a20	-0.011602908
244	0x3bf08a74	0.0073407236
245	0xbd040412	-0.032230444
246	0xbd39b2bc	-0.04533647
247	0x3d37bc83	0.044857513
248	0xbcaa8e49	-0.0208198
249	0x3d77b13e	0.060471766
250	0x3d4d226b	0.05008165
251	0x3d3dbdb0	0.04632348
252	0x3d3044f6	0.043034516
253	0x3d49a95d	0.049233783
254	0xbbed003b	-0.0072326935
255	0x3cffebb0	0.031240314

network.4.bias f4 [8]
0	0x3e24d054	0.16095096
1	0xbcbf9eb1	-0.0233911
2	0x3de478d3	0.11155858
3	0xbca39654	-0.019969143
4	0x3db20678	0.0869264
5	0xbd0dd98d	-0.0346313
6	0x3aa5efcd	0.0012659967
7	0xbd1e5999	-0.038659666
