model_pth/final_correlation_model.pth (torch, 75112 bytes, 6 tensors)

network.0.weight f4 [128, 3]
0	0x3e32b90c	0.17453402
1	0x3e75ce1c	0.24004406
2	0x3e843042	0.25818068
3	0xbed459f5	-0.41474882
4	0x3d3f5398	0.04671058
5	0x3e1d2ddd	0.15349527
6	0x3d172dc9	0.0369089
7	0x3de48543	0.1115823
8	0xbeda9de2	-0.4269858
9	0xbead10ea	-0.33801967
10	0xbe3cf6d0	-0.18453526
11	0x3e6e1fe5	0.23254354
12	0xbeb9654f	-0.36210105
13	0xbea5a8f0	-0.32355452
14	0x3ef10305	0.47072616
15	0xbeebd646	-0.46061915
16	0xbf07db82	-0.5306932
17	0xbdf5bd90	-0.11999047
18	0xbe4a4bc6	-0.19755468
19	0xbf111a63	-0.5668089
20	0x3d926360	0.071478605
21	0xbdbdc051	-0.09265197
22	0x3f09cb09	0.5382543
23	0xbded8af1	-0.115987666
24	0xbe01db20	-0.12681246
25	0x3e7f1737	0.249112
26	0xbe8df79c	-0.27727973
27	0xbce08ae9	-0.027409988
28	0x3c8daf72	0.017295573
29	0xbded0a70	-0.115742564
30	0xbe4e0dc1	-0.20122434
31	0x3ef02d34	0.46909487
32	0xbe148f70	-0.14507842
33	0xbe994ab9	-0.2993982
34	0x3d912c10	0.070884824
35	0xbf0a2998	-0.5396972
36	0xbf0de221	-0.5542317
37	0xbf0484e7	-0.5176529
38	0xbee4b950	-0.44672632
39	0xbe835bc3	-0.25655946
40	0x3c7192e2	0.014744492
41	0x3ece040b	0.4023746
42	0xbe6f54c6	-0.23372182
43	0xbefd9ea5	-0.495351
44	0xbe8efc52	-0.2792688
45	0xbd8cc558	-0.06873578
46	0xbe271e6e	-0.16320202
47	0x3db355e0	0.08756614
48	0xbde94609	-0.11390311
49	0x3e024528	0.12721694
50	0xbd6c1fd1	-0.05764753
51	0x3eb7b61a	0.3588112
52	0xbee19946	-0.4406225
53	0xbdeb0b4c	-0.11476764
54	0xbe12b040	-0.14325047
55	0xbe952a5c	-0.2913388
56	0x3cb63f00	0.022246838
57	0xbe4286f0	-0.18996787
58	0x3e3bc85d	0.18338151
59	0xbe0351e8	-0.12824214
60	0xbd6cef00	-0.057845116
61	0xbecd2df9	-0.40074137
62	0xbc44b100	-0.012005091
63	0xbd5860b0	-0.052826583
64	0xbe4037c8	-0.18771279
65	0xbec1f894	-0.37884963
66	0xbe0d09dc	-0.13773292
67	0xbed80100	-0.42188263
68	0xbece915c	-0.40345275
69	0x3efe5145	0.4967138
70	0xbe6fca15	-0.23416932
71	0x3dc34d52	0.09536232
72	0x3efbdd3c	0.49192226
73	0xbe40cd70	-0.18828368
74	0xbe9a0872	-0.30084568
75	0x3d246df2	0.040143915
76	0xbea5bc05	-0.3237001
77	0x3e572cc6	0.21013173
78	0xbebe0426	-0.3711254
79	0x3d992a80	0.07478809
80	0xbdfd30a0	-0.1236279
81	0x3e5921dc	0.21204323
82	0xbec4f2d6	-0.3846652
83	0x3d9ffe28	0.07812148
84	0xbe52c710	-0.20583749
85	0xbf07b2d8	-0.5300727
86	0xbe644a02	-0.22293857
87	0xbef8c786	-0.48589724
88	0xbf06dc61	-0.5268002
89	0x3dac2e18	0.08407229
90	0x3e747e0a	0.23876205
91	0x3e082c01	0.13298036
92	0x3dc5dae3	0.0966089
93	0x3edff49c	0.4374131
94	0xbeddb73d	-0.43303862
95	0x3e5c756e	0.21529171
96	0xbe493a52	-0.19651154
97	0x3f079035	0.5295442
98	0xbef27fd3	-0.47363147
99	0xbe6c58cb	-0.23080747
100	0x3c91735d	0.017755205
101	0x3e0e2de2	0.1388469
102	0xbeb1341b	-0.34610066
103	0xbd872208	-0.06598288
104	0xbef410f4	-0.47669184
105	0x3e62a1a4	0.22131974
106	0xbf0e2304	-0.5552218
107	0x3d40a7b0	0.04703492
108	0xbe1f1a8c	-0.1553747
109	0x3d1d0920	0.03833878
110	0xbe5d7684	-0.21627241
111	0xbe9c4328	-0.30519986
112	0xbe29b658	-0.16573465
113	0xbe2196e4	-0.15780216
114	0x3d5356ed	0.05159657
115	0xbebb6db4	-0.36607134
116	0x3e3973a1	0.18110515
117	0xbdc6580d	-0.09684763
118	0x3edb53bb	0.4283732
119	0x3ee8e4e4	0.4548713
120	0xbe38be6c	-0.1804139
121	0x3ecbc948	0.39802003
122	0xbd562fea	-0.05229179
123	0x3daaa880	0.0833292
124	0xbebebf62	-0.37255388
125	0x3e4a3654	0.19747287
126	0x3d0c4140	0.034241915
127	0xbebcce26	-0.3687603
128	0xbeac5412	-0.3365789
129	0x3eeda358	0.46413684
130	0x3cc71ca0	0.024305642
131	0xbf02ae7c	-0.5104749
132	0xbeda5169	-0.42640236
133	0x3e867d99	0.26267698
134	0xbd060457	-0.032718983
135	0x3e147944	0.14499384
136	0xbc1ae691	-0.009454385
137	0x3ea3e4c1	0.32010463
138	0xbee5c247	-0.44874784
139	0x3c398d8c	0.011325251
140	0x3e82e0eb	0.25562224
141	0xbe30eab6	-0.17277035
142	0xbda1bcf3	-0.07897367
143	0xbea5b492	-0.32364327
144	0xbe046506	-0.12929162
145	0x3e87c3cc	0.2651657
146	0x3eef5a1c	0.46748435
147	0xbeb36d38	-0.35044265
148	0xbe820447	-0.25393888
149	0xbe20baf6	-0.1569632
150	0x3ef23702	0.47307593
151	0x3eccdb37	0.40010998
152	0x3e7b3be3	0.24534564
153	0xbe9d9a6d	-0.3078188
154	0xbed08603	-0.40727243
155	0xbbd12880	-0.006383002
156	0x3ee9b6bc	0.45647228
157	0xbdcef1b6	-0.101046965
158	0x3e03e89c	0.12881702
159	0xbf14d00e	-0.58129966
160	0xbecabe4b	-0.39598307
161	0x3e2dd127	0.16974317
162	0x3b7aeb59	0.003828725
163	0x3e1cba5f	0.1530547
164	0xbd03ad6d	-0.032147814
165	0x3e2e2bbe	0.17008874
166	0xbd4bb76a	-0.049735464
167	0x3df36848	0.118851244
168	0x3e776981	0.2416134
169	0x3d5d2d23	0.053998124
170	0x3f03a729	0.5142694
171	0xbe5fa0a0	-0.21838617
172	0x3e32024c	0.17383689
173	0xbe652ae8	-0.22379649
174	0xbea69a5e	-0.32539648
175	0x3ee85e8d	0.45384637
176	0xbe01b4ef	-0.12666677
177	0x3ea8c368	0.32961583
178	0xbdde514e	-0.108553514
179	0xbe725929	-0.23666824
180	0x3ea808ec	0.32819307
181	0xbedb467a	-0.42827207
182	0xbf0c3656	-0.5477041
183	0xbdb38fd4	-0.087676674
184	0xbe356616	-0.17714724
185	0xbea240d3	-0.31690082
186	0x3d947590	0.07248986
187	0x3e8cfd9e	0.27537245
188	0xbe235b8a	-0.15952888
189	0xbddcd80c	-0.10783395
190	0x3e6c1f5d	0.23058839
191	0xbddc4f2d	-0.10757289
192	0xbe154927	-0.14578687
193	0x3de7aefa	0.11312671
194	0x3ec1dac2	0.3786221
195	0xbbac5876	-0.005259569
196	0xbe1e84e1	-0.15480377
197	0x3dc511d9	0.09622545
198	0x3db8f6b3	0.09031429
199	0xbdec18d5	-0.11528174
200	0xbd97cbb4	-0.074119
201	0xbf0b505a	-0.5441948
202	0xbe71b0fc	-0.2360267
203	0xbd601f80	-0.05471754
204	0x3e03f114	0.12884933
205	0x3d931737	0.07182162
206	0x3e9b1846	0.30291957
207	0x3e92ee09	0.2869723
208	0xbc55aebe	-0.01304215
209	0x3eda298c	0.42609823
210	0x3e2cc91c	0.16873592
211	0x3f014cde	0.50507915
212	0xbeb442af	-0.35207126
213	0x3e514814	0.20437652
214	0xbe9f2be7	-0.31088182
215	0xbef2f5a1	-0.47453025
216	0xbd464a54	-0.04841073
217	0x3dd178d1	0.10228122
218	0x3c8b97e6	0.017040204
219	0x3f00bccd	0.5028809
220	0xbeb0786f	-0.34466884
221	0x3f06d8c9	0.5267454
222	0xbde9caf2	-0.11415662
223	0x3e63098e	0.22171614
224	0xbd61fe63	-0.055174243
225	0xbe4b6576	-0.19862923
226	0x3f135221	0.57547194
227	0xbea126ef	-0.31475016
228	0x3e8c96d3	0.2745882
229	0xbccdc767	-0.025119497
230	0x3e734f12	0.23760632
231	0x3ccccb67	0.024999334
232	0x3eee321b	0.46522602
233	0xbe724248	-0.23658097
234	0x3d44f9c0	0.048089743
235	0xbef27956	-0.47358197
236	0x3d157c00	0.03649521
237	0xbe9e8e99	-0.30968168
238	0x3c091558	0.008366905
239	0xbe888b41	-0.26668742
240	0xbeeb5b39	-0.45968035
241	0x3eb15afc	0.34639728
242	0x3ed524b9	0.4162958
243	0xbe27bfdc	-0.16381782
244	0x3ce2daa6	0.02769215
245	0x3dcbfa7a	0.09959884
246	0xbe95b1db	-0.29237255
247	0x3e52f8fa	0.2060279
248	0xbe9c12db	-0.30483136
249	0x3cd1626c	0.025559627
250	0x3ef1789a	0.47162324
251	0xbf0883b4	-0.53325963
252	0xbeea3990	-0.45747042
253	0xbc138131	-0.00900297
254	0x3c4ad04a	0.012378762
255	0xbe50a02e	-0.20373604

network.0.bias f4 [128]
0	0xbdc7fa69	-0.09764559
1	0xbd86625f	-0.065617315
2	0x3f2f6989	0.6852041
3	0x3eedb604	0.4642793
4	0x3e95e941	0.2927952
5	0xbf0066a9	-0.50156647
6	0xbdf7ce74	-0.12099925
7	0xbeed52de	-0.46352285
8	0x3e960959	0.29304007
9	0x3e6c356b	0.23067252
10	0xbe2c863a	-0.16848078
11	0x3e988da6	0.2979557
12	0x3ee77a94	0.45210707
13	0xbe14f668	-0.14547122
14	0x3f040bae	0.5158032
15	0xbe962e77	-0.29332325
16	0xbbb00fc1	-0.0053729718
17	0x3d015b10	0.031580985
18	0xbe47b024	-0.19500786
19	0x3ef0f6c0	0.47063255
20	0xbec253e8	-0.3795464
21	0x3f02e144	0.5112498
22	0x3ec6cef6	0.38829774
23	0x3e409499	0.18806686
24	0xbe932638	-0.28740096
25	0x3eb1107d	0.34582892
26	0xbef1dd88	-0.47239327
27	0xbe16b2c2	-0.14716628
28	0x3f09d474	0.538398
29	0x3e2319ec	0.15927857
30	0xbebfc37a	-0.37453824
31	0x3e81250a	0.2522357
32	0x3e5c9675	0.2154177
33	0x3ec2b41e	0.38028044
34	0xbeb5a9d1	-0.35481122
35	0xbdc54a10	-0.09633267
36	0x3e0a8e14	0.13530761
37	0x3ea09d1a	0.3136986
38	0x3ebfbfde	0.3745107
39	0xbe0879f3	-0.1332777
40	0x3efefd1f	0.4980249
41	0xbe15b614	-0.14620239
42	0x3cb3e5e0	0.021960199
43	0xbd1b8170	-0.037965238
44	0x3ecb0f70	0.39660215
45	0xbf02a8c6	-0.5103878
46	0xbd1edd3a	-0.038785197
47	0x3f0bc542	0.54597867
48	0xbd0b2db9	-0.03397915
49	0x3e39699c	0.18106693
50	0x3ef91d01	0.4865494
51	0x3ebadc20	0.36496067
52	0xbd2743c1	-0.0408361
53	0x3ec1b2b5	0.37831655
54	0xbdf95ff0	-0.12176502
55	0x3eaa2148	0.33228517
56	0xbe6fc330	-0.23414302
57	0xbe02d757	-0.12777458
58	0x3e552912	0.20816448
59	0x3e32637f	0.17420767
60	0xbeae6630	-0.34062338
61	0x3e736c88	0.2377187
62	0xbf00a543	-0.5025217
63	0x3f084798	0.53234243
64	0xbeec692a	-0.46173984
65	0x3e4e1936	0.20126805
66	0x3e9fe084	0.3122598
67	0xbdb976f0	-0.09055889
68	0xbedb7f30	-0.42870474
69	0xbef6ec98	-0.48227382
70	0x3e09788b	0.1342489
71	0x3e291ffc	0.16516107
72	0x3e7ee53f	0.24892138
73	0x3c302e70	0.010753259
74	0x3e391338	0.18073738
75	0x3e36409f	0.17798088
76	0x3ee1622f	0.4402022
77	0x3d19f6a1	0.03758872
78	0xbe4c2cb2	-0.19938925
79	0x3f12a79f	0.5728702
80	0xbf0a6b90	-0.5407038
81	0xbda3b7d4	-0.07994047
82	0x3f0117b4	0.50426793
83	0x3e9491ff	0.29017636
84	0x3eeacaee	0.45857948
85	0x3ea70f02	0.32628638
86	0xbc75b25c	-0.0149961375
87	0xbeb30bf6	-0.34970063
88	0x3e8d798a	0.2763179
89	0xbe85d93d	-0.26142302
90	0xbecd222c	-0.40065134
91	0x3e4f06d7	0.20217453
92	0xbda66391	-0.081244595
93	0xbdcffde0	-0.10155845
94	0x3df50a00	0.11964798
95	0xbf1dda50	-0.61661243
96	0x3e96fd71	0.29490235
97	0x3de84a96	0.11342351
98	0xbe96f8f4	-0.2948681
99	0xbf271608	-0.6526799
100	0xbed671a6	-0.41883582
101	0x3eaf047b	0.34183106
102	0xbf0a1eb4	-0.539531
103	0x3c4ac185	0.01237524
104	0x3ec8b2c4	0.39198887
105	0x3cb142f1	0.021638365
106	0x3d74f1e8	0.059801012
107	0xbe9ca651	-0.3059564
108	0xbeb2bf76	-0.34911698
109	0xbe86d600	-0.26335144
110	0xbe023a10	-0.12717462
111	0xbe84a199	-0.2590454
112	0xbf037565	-0.51351005
113	0xbf02f088	-0.5114827
114	0x3f065cac	0.52485156
115	0xbe05ced4	-0.1306718
116	0xbe40e30a	-0.18836609
117	0xbf010f00	-0.50413513
118	0x3c3005ed	0.0107436
119	0xbe9ba2ef	-0.30397746
120	0xbe02f691	-0.1278937
121	0x3ea85aec	0.32881868
122	0x3f138f68	0.57640696
123	0xbe51ebfa	-0.20500174
124	0x3e01b431	0.12666394
125	0x3ed9cdbe	0.4253978
126	0xbe1465c2	-0.14491943
127	0x3ec56e93	0.38560924

network.2.weight f4 [128, 128]
0	0xbd3e00b4	-0.04638739
1	0xbd7d89c6	-0.06189897
2	0x3da8d8bb	0.08244463
3	0x3d95d03f	0.073151104
4	0x3cc257fc	0.023723595
5	0xbd3a387d	-0.045464028
6	0x3d1c5606	0.038167976
7	0xbd48ddb0	-0.049039543
8	0xbcdbda2a	-0.026837427
9	0xbdafafc6	-0.08578448
10	0x3c57bd88	0.013167746
11	0xbd43968d	-0.047751
12	0x3c6538e0	0.013990611
13	0xbc380688	-0.011232026
14	0x39e35400	0.000433594
15	0x3b99c750	0.0046929494
16	0xbdaf743c	-0.08567092
17	0x3d82284f	0.063553445
18	0xbcd82780	-0.026386023
19	0x3d790d2a	0.06080357
20	0xbd6c0b94	-0.05762823
21	0xbd573f21	-0.05255044
22	0x3ca9f7c0	0.02074802
23	0xbc84f2f8	-0.016229138
24	0xbd4dff26	-0.050292157
25	0xbdabe48f	-0.083932035
26	0xbcdf171e	-0.027232703
27	0xbd1640aa	-0.036682762
28	0xbda1c177	-0.078982286
29	0x3d8458cf	0.064622514
30	0xbd387ebe	-0.045042746
31	0x3d3f7126	0.046738766
32	0xbccd2720	-0.02504307
33	0xbd995c15	-0.074882664
34	0xbbdaf090	-0.0066815093
35	0xbcc88e0c	-0.024481796
36	0x3c36f220	0.011166126
37	0xbd65b398	-0.056079477
38	0x3d0d1c3e	0.034450762
39	0x3b7f4800	0.0038952827
40	0x3d48cd16	0.04902371
41	0xbc119e98	-0.008887909
42	0x3d093b4e	0.033503823
43	0x3c3aa340	0.011391461
44	0xbd46cd23	-0.048535477
45	0xb9c9eb00	-0.00038512796
46	0x3c22df70	0.009940967
47	0xbd33b6f1	-0.04387564
48	0x3c83135c	0.016000442
49	0x3cf1fe8c	0.029540323
50	0xbd67f79c	-0.056632623
51	0xbc360960	-0.011110634
52	0xbd842e2b	-0.06454118
53	0x3d1a8cbe	0.03773188
54	0x3d995245	0.07486395
55	0xbbb4bd40	-0.0055157244
56	0x3b45fea0	0.0030211583
57	0xbd993ec6	-0.07482676
58	0x3d423726	0.047415875
59	0x3da5f86b	0.081040226
60	0x3d53adbe	0.051679365
61	0xbc22b598	-0.009930991
62	0xbd71f507	-0.059071567
63	0xbc63bc28	-0.01389984
64	0x3c76af90	0.015056506
65	0x3cedd320	0.029031336
66	0xbd02e3b9	-0.031955454
67	0xbc6a56e8	-0.014302947
68	0x3c46cda0	0.012133986
69	0x3cbefa94	0.023312844
70	0x3c2afd20	0.010436326
71	0xbcbcb458	-0.023035213
72	0x3d9310c3	0.071809314
73	0x3d4266b2	0.04746122
74	0xbcb057a4	-0.021526165
75	0xbd3dfc1e	-0.046383016
76	0xbc90303c	-0.017601125
77	0xbd5742b5	-0.05255385
78	0x3c591158	0.013248764
79	0xbbdd4c30	-0.006753467
80	0xbda8d7ea	-0.08244307
81	0xbc500f58	-0.012698971
82	0xbd9e62ec	-0.077337116
83	0x3c449e28	0.012000598
84	0xbcf25c1c	-0.029584937
85	0xbda86688	-0.08222681
86	0x3d29a812	0.04142005
87	0x3cdfe0e0	0.027328908
88	0x3d1cb1d6	0.038255535
89	0xbd83f73f	-0.06443643
90	0xbc2891f8	-0.010288708
91	0x3d94326d	0.072361805
92	0x3db33ec9	0.0875221
93	0x3c6792f0	0.014134154
94	0x3cd03c34	0.025419332
95	0xbdb415f0	-0.08793247
96	0x3db4b81b	0.08824178
97	0xbd8a2b48	-0.067465365
98	0x3d13eb10	0.036112845
99	0x3d89b9bd	0.0672488
100	0x3d141974	0.036157086
101	0x3d003cf0	0.031308115
102	0xbce86cb2	-0.028372142
103	0xbcb1141c	-0.021616034
104	0x3d8e0497	0.06934469
105	0x3cf68ad8	0.030095503
106	0xbd425c9b	-0.047451597
107	0x3d0df1d8	0.03465447
108	0x3d3d0f66	0.046157263
109	0xbd915fc8	-0.07098347
110	0x3d20374e	0.039115243
111	0xbd361e72	-0.04446263
112	0x3cbc4d20	0.022985995
113	0xbd06c1d4	-0.032899693
114	0xbdad84a5	-0.084725656
115	0xbb7c78e0	-0.0038524196
116	0x3d5e582e	0.054283313
117	0x3d40000e	0.046875052
118	0x3af29200	0.0018506646
119	0xbc78df40	-0.015189946
120	0xbd2504de	-0.040287845
121	0xbbf913e0	-0.0076012462
122	0x3ca4481c	0.020053916
123	0x3d8f5339	0.06998295
124	0xbc72aab8	-0.01481121
125	0xbaf74640	-0.0018865541
126	0xbd6dd13b	-0.058060866
127	0x3d11c998	0.035592645
128	0x3c9b9b2a	0.018994886
129	0xbcc99769	-0.02460833
130	0x3dd6794f	0.104723565
131	0x3db47dd2	0.08813061
132	0x3d984b58	0.07436246
133	0x3d8fcab9	0.07021088
134	0xbd3bb220	-0.04582417
135	0xbe95896b	-0.29206404
136	0xbc21c57b	-0.009873743
137	0x3e1b755b	0.15181486
138	0xbe48055d	-0.19533296
139	0xbd5e2cfc	-0.05424212
140	0xbc92cbfc	-0.017919533
141	0xbc9d4371	-0.019197198
142	0xbd59130c	-0.05299668
143	0x3c4b3588	0.0124029
144	0xbd9634ad	-0.07334266
145	0x3d072c8c	0.033001468
146	0x3cff4c48	0.031164303
147	0x3c5f2178	0.013618819
148	0xbc85626c	-0.016282283
149	0x3befab20	0.007314101
150	0x3c9622a8	0.018327072
151	0xbd49de8c	-0.049284503
152	0xbd998517	-0.07496088
153	0x3d4128eb	0.047158163
154	0xbd0f5644	-0.03499438
155	0xbd1a16c2	-0.03761936
156	0xbc481ff8	-0.012214653
157	0x3d8cdde5	0.068782605
158	0xbd0cf64b	-0.03441457
159	0xbc2f1bd1	-0.010687784
160	0xbe1474dc	-0.14497703
161	0x3d339f84	0.043853298
162	0xbd9a9cbd	-0.07549427
163	0xbd057479	-0.03258178
164	0x3c230aa0	0.009951264
165	0x3d24b816	0.04021462
166	0xbd9d8962	-0.07692219
167	0x3bf42c3e	0.007451563
168	0x3df014f3	0.11722746
169	0xbda32ec2	-0.07967903
170	0xbdad667a	-0.084668115
171	0xbd903a89	-0.07042415
172	0x3ba0008b	0.004882877
173	0x3dbb1f15	0.09136788
174	0xbd77d7bb	-0.06050847
175	0x3e4dca12	0.20096615
176	0x3d2052bb	0.039141398
177	0xbdb085b9	-0.086192556
178	0x3bcebbc4	0.0063090045
179	0x3d8b6843	0.06806996
180	0xbd4c2490	-0.049839556
181	0xbe3cef88	-0.18450749
182	0xbdf0013c	-0.117189854
183	0x3d8fc887	0.070206694
184	0x3da06927	0.07832556
185	0xbcf24cee	-0.029577699
186	0x3df71a7a	0.12065597
187	0xbeaeccb9	-0.34140566
188	0xbd9e42af	-0.07727563
189	0x3a6d0080	0.0009040907
190	0xbd216d8a	-0.039411105
191	0x3e2a4fad	0.16631956
192	0x3cb4b9de	0.022061285
193	0x3e1386fd	0.14406963
194	0x3c90ab41	0.017659785
195	0xbd163825	-0.036674637
196	0x3c3067c2	0.010766925
197	0xbde3b4b8	-0.11118454
198	0x3dd1b549	0.102396555
199	0xbd4f8e4a	-0.050672807
200	0x3da5b904	0.080919296
201	0xbd8ab289	-0.06772334
202	0x3debc906	0.115129516
203	0x3e1fb1b9	0.1559514
204	0x3e079c65	0.13243254
205	0x3d5f9b79	0.05459163
206	0xbc94fd14	-0.018187083
207	0x3d7c9320	0.061663747
208	0xbc96907f	-0.018379448
209	0xbd4132b8	-0.04716751
210	0x3db9e4bb	0.0907683
211	0x3da7234c	0.08161029
212	0x3d375f97	0.044768896
213	0x3da9ad5f	0.08285021
214	0xbd38d967	-0.045129206
215	0x3d3e3c32	0.046444125
216	0x3df49be7	0.119437985
217	0xbd8358e7	-0.06413441
218	0xbc7dc490	-0.015488759
219	0xbc02c37e	-0.007981179
220	0xbcdb0142	-0.026733998
221	0xbd72eefe	-0.059309952
222	0x3cdfac10	0.027303725
223	0xbbaf95d6	-0.005358438
224	0x3d8c7e80	0.068600655
225	0xbe1ee78e	-0.15518019
226	0xbe5a7c72	-0.21336535
227	0xbd18a02b	-0.037262123
228	0xbd9e1cd1	-0.0772034
229	0x3db835e3	0.08994653
230	0x3d640496	0.055668436
231	0x3d73d347	0.05952766
232	0x3d47c411	0.048770968
233	0x3ce6ad9f	0.02815896
234	0xbbdba0db	-0.006702525
235	0x3b5df180	0.003386587
236	0xbdb2b479	-0.08725829
237	0xbdc10fc1	-0.09426833
238	0x3d2a457e	0.04157018
239	0xbbd3d8a0	-0.0064650327
240	0xbd0b65b3	-0.034032535
241	0xbe015d6c	-0.12633294
242	0x3e6a9f5d	0.22912355
243	0xbd4158e2	-0.047203906
244	0xbe280bab	-0.16410701
245	0x3d047de6	0.03234663
246	0x3dec0774	0.11524859
247	0x3c36f8f8	0.011167757
248	0xbc9477b9	-0.018123494
249	0xbc875cc3	-0.016523724
250	0xbd89836e	-0.06714521
251	0xbe8ba7dc	-0.27276504
252	0xbd2c1439	-0.042011473
253	0x3e1923c7	0.14955054
254	0xbd9d5251	-0.07681716
255	0x3d5c801f	0.053833123

network.2.bias f4 [128]
0	0x3ce8f884	0.028438814
1	0x3d53ac9d	0.05167829
2	0x3d9f21cb	0.07770117
3	0xbcf6747b	-0.03008484
4	0x3d6143a7	0.05499616
5	0xbd7f6451	-0.06235153
6	0x3d8f7cee	0.0700625
7	0x3d21149b	0.03932629
8	0xbd18e106	-0.037323974
9	0x3d923a6e	0.07140051
10	0xbc2f76a2	-0.010709437
11	0xbd5f7224	-0.054552212
12	0x3aac77aa	0.0013158221
13	0xbb4f6411	-0.0031645338
14	0xbd8b43da	-0.06800051
15	0xbd963a10	-0.07335293
16	0xbd1ebf3f	-0.038756605
17	0x3d915875	0.0709695
18	0x3d2adaf8	0.04171273
19	0x3daae7fd	0.083450295
20	0xbca6c252	-0.020356331
21	0x3d996fbe	0.07492016
22	0x3d37accf	0.044842537
23	0xbd506439	-0.05087683
24	0x3b8a93a0	0.004229024
25	0xbbd4a7bc	-0.006489722
26	0x3d3a8064	0.0455326
27	0x3d57c018	0.05267343
28	0x3cbca497	0.023027701
29	0xbcefa748	-0.02925457
30	0x3dbfeb24	0.093710214
31	0xbd8ed9f2	-0.069751635
32	0xbc882219	-0.016617822
33	0x3d8710b5	0.065949835
34	0xbcc8c4ef	-0.024507968
35	0xbd9a0821	-0.07521082
36	0x3c3bd278	0.011463754
37	0xbc9a1370	-0.018808097
38	0xbd931c8f	-0.071831815
39	0x3dd71fc9	0.105041094
40	0x3cf2aee1	0.029624404
41	0x3dbb0a25	0.09132794
42	0xbd395c4b	-0.045254033
43	0x3c780852	0.0151387025
44	0xbc88f98b	-0.016720554
45	0xbd8582fc	-0.06519124
46	0x3d58aa37	0.052896705
47	0xbd58f12f	-0.052964386
48	0x3d70e571	0.058812562
49	0xbd8ea9ca	-0.069659784
50	0x3da323ab	0.079657875
51	0xbcef2d87	-0.029196514
52	0xbdbcdca5	-0.09221772
53	0xbbecba16	-0.0072243316
54	0xbcf6276a	-0.030048091
55	0x3d8af271	0.06784523
56	0x3d759281	0.05995417
57	0x3d646cb3	0.055767726
58	0x3c63da60	0.013907045
59	0xbd60f220	-0.05491841
60	0x3d1e2f9c	0.038619623
61	0x3c9d3e4b	0.019194743
62	0xbd07ff54	-0.033202484
63	0xbbff8b18	-0.0077985637
64	0x3d445e26	0.04794135
65	0x3c8b792b	0.01702555
66	0xbc664dfa	-0.014056677
67	0xbcea1412	-0.028574023
68	0xbc92db9b	-0.017926982
69	0xb9f00800	-0.00045782328
70	0xbc2fcb98	-0.010729693
71	0xbd3c5614	-0.045980528
72	0x3d9fcd92	0.07802881
73	0xbd5ef6b7	-0.054434504
74	0xbdbeca3d	-0.09315918
75	0xbd9e5576	-0.07731144
76	0x3caa5c43	0.020795947
77	0xbd960fb7	-0.07327216
78	0x3d3b97eb	0.045799177
79	0xbda120eb	-0.07867607
80	0xbd46e331	-0.04855651
81	0xbd5e75bf	-0.05431151
82	0xbc876f0b	-0.016532442
83	0xbc8f48b6	-0.017490726
84	0xbcb2ff53	-0.021850264
85	0x3d1187f2	0.03553004
86	0x3d92de77	0.07171338
87	0x3cea52e0	0.028603971
88	0xbdb75b5b	-0.089529715
89	0x3c223369	0.009899952
90	0xbd6d49e8	-0.05793181
91	0xbdbffc86	-0.09374337
92	0xbcbc6ade	-0.023000177
93	0xbcae2eff	-0.021262644
94	0xbc2b99d1	-0.010473684
95	0x3d71e43f	0.059055563
96	0xbcda83d1	-0.026674183
97	0x3cd35046	0.025795113
98	0xbcfeb13c	-0.031090371
99	0xbd7d0581	-0.061772827
100	0xbd1b88a7	-0.03797212
101	0xbcc78054	-0.024353184
102	0x3b553fae	0.0032539177
103	0xbd8ff5fa	-0.07029338
104	0xbd8b92ef	-0.06815135
105	0x3d4a3dca	0.049375333
106	0xbc9c4dac	-0.019080006
107	0x3d018267	0.031618502
108	0x3d9d1283	0.076695465
109	0x3d55f823	0.052238595
110	0x3d1c895e	0.03821694
111	0xbcfa1b37	-0.030530555
112	0xbccb6a98	-0.024831101
113	0x3b95b4c0	0.004568666
114	0x3c194b37	0.0093563115
115	0xbd97dd87	-0.074153
116	0x3d11c305	0.035586376
117	0xbd064a3c	-0.03278564
118	0xbd89a1c8	-0.067203104
119	0xbac52ea6	-0.001504381
120	0x3ca73865	0.020412633
121	0xbd90e094	-0.07074085
122	0xbceef584	-0.029169805
123	0xbc0f7531	-0.008755968
124	0xbda05412	-0.07828535
125	0x3beed90f	0.007289059
126	0x3d98f64b	0.07468852
127	0x3ccb886e	0.024845328

network.4.weight f4 [8, 128]
0	0xbd5726f7	-0.052527394
1	0x3e822d43	0.25425157
2	0xbd34fd0c	-0.044186637
3	0x3c937078	0.017997965
4	0x3c98e695	0.018664638
5	0xbc914300	-0.017732143
6	0x3d954aae	0.07289635
7	0x3bc348a1	0.005959586
8	0xbcde2a5d	-0.02711981
9	0xbc5a1d88	-0.013312705
10	0x3b712063	0.0036792986
11	0xbbbd3140	-0.0057736933
12	0x3c01af44	0.007915322
13	0xbcfb4337	-0.030671699
14	0xbdac1103	-0.08401682
15	0x3c95e079	0.018295513
16	0xbcb9c5c7	-0.022677315
17	0xbd9cf9e2	-0.07664849
18	0x38a0a18c	7.659485e-05
19	0xbd0a3b63	-0.03374804
20	0x3cd75154	0.026283897
21	0xbd60ab7b	-0.054851037
22	0xbd7084ac	-0.058720276
23	0x3d755ecc	0.05990486
24	0xbd7ec053	-0.062195133
25	0xbb7d5511	-0.003865544
26	0xbb8e6039	-0.0043449667
27	0x3c9c398e	0.019070413
28	0xbd6ba82b	-0.057533424
29	0x3d845d5f	0.064631216
30	0x3d839c5f	0.0642631
31	0x3cdcd12d	0.026955212
32	0xbc49bbb9	-0.012312823
33	0x3c06d5b8	0.008229665
34	0x3db11dce	0.08648263
35	0xbc991223	-0.018685406
36	0xbd02e50a	-0.03195671
37	0xbd7c97b6	-0.06166812
38	0xbd084b81	-0.03327513
39	0x3d89cd4a	0.06728609
40	0xbda499c0	-0.08037138
41	0xbcfe6622	-0.03105456
42	0x3dc5e5db	0.09662982
43	0xbd8ef020	-0.06979394
44	0xb9a501e8	-0.00031472673
45	0xbca8ac24	-0.020589896
46	0xbd2f7527	-0.042836335
47	0xba532e80	-0.000805594
48	0xbc54c4bf	-0.012986361
49	0xbd19322a	-0.037401356
50	0xbd8f3b06	-0.0699368
51	0x3d5e8cad	0.054333378
52	0xbd90f735	-0.07078401
53	0x3db04662	0.086071745
54	0x3d41a9a6	0.04728093
55	0xbd0680d2	-0.032837696
56	0xbc35dd3a	-0.011100108
57	0x3a26ad70	0.00063582417
58	0x3c1d2d10	0.009593263
59	0x3c3099d4	0.010778863
60	0x3d820957	0.06349438
61	0xbb2a5e92	-0.002599631
62	0x3cb48760	0.022037208
63	0x3c79a4b6	0.015237024
64	0xbc984cd0	-0.018591315
65	0x3baa7c0e	0.0052027768
66	0x3d44cf16	0.048049055
67	0x3d4fe4c6	0.050755285
68	0x3d5c9482	0.053852566
69	0xbd92e0fd	-0.07171819
70	0x3c9828a8	0.018574074
71	0xbc18aee5	-0.009319042
72	0x3cd64b4a	0.026158947
73	0x3d9b2af4	0.07576552
74	0xbbbb089e	-0.0057078144
75	0xbc8ac9dc	-0.016941957
76	0x3b7b356c	0.0038331402
77	0xbd260ed0	-0.04054147
78	0xbd959286	-0.07303338
79	0xbbf70e6f	-0.0075395624
80	0x3d8999e1	0.06718803
81	0xbd0d604c	-0.034515664
82	0x3bc4f3b2	0.006010496
83	0xbd3bca8c	-0.04584746
84	0xbd51295d	-0.051064838
85	0x3d6988f2	0.057015367
86	0xbd8392d8	-0.064244926
87	0xbcc67ae8	-0.024228528
88	0xbc5ec8de	-0.013597695
89	0x3b0a338c	0.0021087853
90	0x3bcc06d0	0.006226398
91	0xbd50de81	-0.050993446
92	0xbbe48f0a	-0.0069750594
93	0xbcfa3e3d	-0.030547256
94	0x3c1c2a1b	0.009531523
95	0x3d0031b3	0.031297397
96	0xbc0a915c	-0.008457508
97	0x3da530e3	0.08065965
98	0xbd91f8c8	-0.071275294
99	0x3c84c2a4	0.016206093
100	0xbd8eb8bc	-0.06968829
101	0x3d929dc3	0.07158997
102	0x3c53ee36	0.012935212
103	0xbd3bac59	-0.04581866
104	0xbd9ca702	-0.07649042
105	0xbd02de11	-0.03195006
106	0x3d895943	0.067064784
107	0x3d64cf72	0.055861898
108	0xbc9a2cf8	-0.01882027
109	0x3d958ce8	0.07302266
110	0xbb0110d8	-0.0019693878
111	0xbd36f34c	-0.04466562
112	0x3bc74248	0.0060808994
113	0xbd4ab6c4	-0.049490705
114	0xbd5684b4	-0.05237265
115	0xbd4fbda5	-0.05071797
116	0x3d2e293b	0.04251979
117	0x3daeb64a	0.08530863
118	0x3cc47f82	0.023986582
119	0xbbdc4ff4	-0.0067233983
120	0x3d076ec0	0.033064604
121	0xbcd86f14	-0.026420154
122	0xbd4bf421	-0.049793366
123	0x3d29d34d	0.041461278
124	0xbd79c66f	-0.060980257
125	0xbccb4849	-0.024814742
126	0xbd1eaac7	-0.038737085
127	0xbc0e5d91	-0.0086893
128	0x3c3dafd0	0.0115775615
129	0x3e5f563b	0.21810238
130	0x3c4e166c	0.012578588
131	0x3d8d878c	0.06910619
132	0x3d6eda1a	0.058313467
133	0x3c0f3a6e	0.008741958
134	0x3db44b79	0.08803458
135	0x3daa181f	0.08305382
136	0xbcbae0f8	-0.022812352
137	0xbb8213bf	-0.003969639
138	0x3c266b6f	0.01015745
139	0x3b9f0970	0.00485342
140	0xbd6e69a0	-0.0582062
141	0xbca95188	-0.02066876
142	0xbcf18e52	-0.029486809
143	0xbc1e001e	-0.009643583
144	0xbd215fad	-0.039397884
145	0xbd6b2f67	-0.057418253
146	0x3c8ea6dd	0.017413551
147	0x3d8b4eaf	0.06802117
148	0x3d42f4e5	0.04759683
149	0xbd43b071	-0.04777569
150	0xbd459025	-0.04823317
151	0x3d835593	0.06412806
152	0x3da44e62	0.08022763
153	0x3ca8ae3a	0.02059089
154	0xba9ed634	-0.0012118281
155	0xbcbb3c2c	-0.02285584
156	0x3cc69b1a	0.02424388
157	0xbce79616	-0.028269809
158	0xb99d845f	-0.00030043998
159	0x3d0cba7d	0.034357537
160	0xbd91fe8a	-0.071286276
161	0xbd183ab4	-0.03716536
162	0xbcac6758	-0.021045372
163	0x3d855038	0.06509441
164	0x3d8bb32b	0.06821283
165	0xbda12aa4	-0.07869461
166	0x3c5a8d24	0.013339315
167	0xbcbb4c34	-0.022863485
168	0xbce22782	-0.02760673
169	0x3da17063	0.07882764
170	0x3c5ee77c	0.013604995
171	0xbbdde454	-0.0067716036
172	0x3c8ecd00	0.017431736
173	0xbc8ecc94	-0.017431535
174	0x3da7a812	0.08186354
175	0x3ca513d8	0.020151064
176	0xbc6531c5	-0.013988917
177	0xbda50336	-0.08057253
178	0x3b0ec360	0.0021783933
179	0x3abf35a1	0.0014588126
180	0xbcff762e	-0.031184282
181	0xbccb65db	-0.024828842
182	0xbc7e0d80	-0.015506148
183	0xbb71f470	-0.0036919378
184	0x3b587cb8	0.0033033323
185	0x3ce35e3b	0.027754894
186	0x3d2fec1a	0.042949773
187	0xbc90275b	-0.017596891
188	0x3d92395c	0.07139847
189	0xbd738a25	-0.059457917
190	0xbd327a33	-0.04357357
191	0x3ba725cc	0.0051009413
192	0x3d7b6a4a	0.061380662
193	0xbc5f3615	-0.013623734
194	0x3d33af51	0.043868367
195	0x3d86c90f	0.06581318
196	0xbc87cade	-0.016576227
197	0xbd886020	-0.066589594
198	0xbc94b224	-0.01815135
199	0x3bad5221	0.0052893315
200	0xbd009d4e	-0.031400017
201	0x3d52979a	0.05141411
202	0xbd1a64d2	-0.037693806
203	0xbda327b4	-0.07966557
204	0x3ce08450	0.027406842
205	0xbd149c5d	-0.036281932
206	0xbd8249d5	-0.063617386
207	0xbd033e81	-0.03204203
208	0xbda29751	-0.079390176
209	0xbd8282b9	-0.063725896
210	0x3da11557	0.078653984
211	0xbd9fcb6c	-0.078024715
212	0xbcf95110	-0.030434161
213	0xbda17c3b	-0.07885023
214	0x3d45b422	0.04826749
215	0x3ca129b0	0.019673198
216	0x3d033fd9	0.03204331
217	0x3d8a7b79	0.06761832
218	0xbd8ad25e	-0.067784056
219	0x3d616ae5	0.055033583
220	0x3d77d6cd	0.060507584
221	0xbc6774bc	-0.014126953
222	0xbd4c0b03	-0.04981519
223	0xbc9f27a3	-0.01942808
224	0x3cb0588d	0.0215266
225	0xbd181b72	-0.03713555
226	0x3d0a7c34	0.033809856
227	0x3d04c61c	0.032415494
228	0x3c8ea074	0.017410494
229	0x3db4c08f	0.0882579
230	0xbd740eff	-0.059584614
231	0x3d69f044	0.0571139
232	0x3d9d555f	0.07682299
233	0xbd3ba867	-0.045814898
234	0x3bd27810	0.006423004
235	0xbd4f735f	-0.050647136
236	0x3da1d837	0.07902568
237	0x3cda53ec	0.026651345
238	0xbc39dcf1	-0.01134418
239	0xbd34d978	-0.044152707
240	0x3c101061	0.008792968
241	0xbd69caa8	-0.057078034
242	0xbd0f4a0d	-0.03498273
243	0x3cb6ed4c	0.022329949
244	0x3d8bbb58	0.06822842
245	0xbd7c1c5c	-0.061550483
246	0xbda7cfdd	-0.08193944
247	0x3c26c3b4	0.010178495
248	0xbc3f9f43	-0.011695686
249	0x3cba204c	0.022720478
250	0xbd8b21d0	-0.067935586
251	0x3b387227	0.0028144212
252	0xbcba7eb8	-0.022765502
253	0x3dbfce0e	0.09365474
254	0x3d8b4f59	0.06802244
255	0xbd13e1b3	-0.036103915

network.4.bias f4 [8]
0	0x3d738076	0.05944868
1	0xbc95598c	-0.018231176
2	0xbc7a01fc	-0.015259262
3	0x3d4772fb	0.04869364
4	0xbba3d3a4	-0.0049995948
5	0x3da435c2	0.08018066
6	0xbc43c13a	-0.011947924
7	0x3d96857a	0.073496774
